ML/model/tiflite_model/model_hotel.tflite (tflite, 78516 bytes, 4 tensors)

recommended/embedding_3/embeddings f4 [59, 1]
000000 0a bb 2e 3e 7a 22 27 bc 3f 7e c9 3d 88 fb c7 bd
       0.17063537 -0.010201091 0.09838533 -0.09764773
000010 9e 1e 72 be 4f e3 66 3e 0b fa 82 bd f0 c9 f0 bd
       -0.23644492 0.22547649 -0.06395348 -0.117572665
000020 59 12 18 3e d6 b6 67 bc 1f 77 25 bd 01 10 58 3e
       0.14850749 -0.014142713 -0.040396806 0.21099855
000030 b0 85 1b be 9a 34 2e be c7 be 82 bd 4a 22 0a be
       -0.15187716 -0.17012253 -0.06384044 -0.13489643
000040 92 5a 3d 3e 4b ff 65 bd 5b 1a 1d 3e 74 cc 3a 3d
       0.18491581 -0.05615167 0.15342085 0.045605138
000050 3d 43 08 be 3c a8 88 bd a2 e5 01 3e a7 77 06 be
       -0.133069 -0.06672713 0.12685254 -0.13131581
000060 f4 31 6f 3d 7b 24 b6 3d 6e 21 cd 3e ce f1 4f 3d
       0.05839725 0.08893677 0.40064567 0.050767712
000070 9c 5f c5 3c cd 46 e7 bd d6 11 97 3e 00 fb ca bd
       0.024093442 -0.11292801 0.29505795 -0.09911156
000080 c5 f0 29 bd 84 84 9a 3d d3 4d 12 3e 7a a2 19 bd
       -0.04148938 0.075448066 0.142875 -0.037508465
000090 76 82 77 3d 0d 46 13 3d 3f 60 0e 3e a5 89 5d be
       0.06042715 0.035955478 0.13903902 -0.21634538
0000a0 f9 41 39 3e a7 f8 34 be d2 e7 15 be 73 55 7a 3c
       0.18091573 -0.17672978 -0.14639214 0.015279162
0000b0 04 b9 38 3d 40 e2 7a 3d 05 14 a5 bd 66 57 bb be
       0.04509832 0.061250925 -0.08060459 -0.36590117
0000c0 8d ca d7 bd 07 6a 13 3c e5 2a 82 3d bc 61 8f 3e
       -0.1053668 0.008997447 0.06355838 0.28004253
0000d0 78 e7 0b bd 47 42 ec bd 66 e9 1c bc 9f 83 bf 3d
       -0.034156293 -0.11536079 -0.009577131 0.093512766
0000e0 0a 47 79 be 49 c8 aa 3e 72 f3 91 be
       -0.24343506 0.3335593 -0.28506047

recommended/embedding_2/embeddings f4 [59, 50]
000000 d7 57 b9 3d 31 29 9b bd b3 56 08 bd 20 73 74 3d
       0.09049957 -0.07576216 -0.033285808 0.059680104
000010 d0 b7 70 bd e7 7e b3 3d e2 73 06 be 7a d3 62 3d
       -0.058769047 0.08764439 -0.13130143 0.05537746
000020 f5 6e b9 3c 5e 08 b5 bc 36 66 0c bd 90 ba 19 bd
       0.022635916 -0.022098716 -0.034277163 -0.037531435
000030 aa f1 a7 3c 4b c2 ea 3c 58 a8 83 3c 78 e7 a2 bd
       0.020500977 0.0286571 0.016071483 -0.079543054
000040 5d a4 e3 3d d8 fd 4e 3d 22 15 25 bd bc cb 86 bd
       0.11115334 0.050535053 -0.040303357 -0.06581828
000050 1c c9 16 bd 11 62 8f 3b 3d 1c 01 be 84 37 0c bd
       -0.036812887 0.004375704 -0.12608428 -0.03423263
000060 65 ac 4d bd 2e 54 4a bd 2b 4e 11 bd ec 82 1a 3e
       -0.050213236 -0.049396686 -0.035474937 0.15089005
000070 35 38 47 3d 34 d9 6e bd f9 fe eb bc 21 4f 89 3d
       0.048637588 -0.05831261 -0.028808104 0.06704546
000080 87 10 96 bd 42 6e 02 3e e3 7b 69 3c 7a 4d 5a 3d
       -0.07327371 0.12737373 0.014250728 0.053296544
000090 52 58 ca bd d4 88 45 3d 2f 8a d7 bd f7 8e 9b bd
       -0.09880127 0.048226193 -0.10524403 -0.07595628
0000a0 71 30 c9 bd d8 d8 84 bd 1b ce c2 3d b6 6f a4 bd
       -0.098236926 -0.06486672 0.09511968 -0.0802912
0000b0 82 79 6f 3d 9f 1f 72 3d 89 c5 1a 3d 12 7d 11 3c
       0.05846549 0.059112187 0.03778604 0.008879917
0000c0 f8 18 c2 bd 64 98 4f 3d 45 c2 a0 3d 38 e2 91 bd
       -0.09477419 0.05068244 0.07849554 -0.07123226
0000d0 cb ad 25 be 3a 2d 08 bd 75 64 36 be 83 bf 85 bd
       -0.16179578 -0.033246256 -0.17811759 -0.065306686
0000e0 e4 ec b4 bd 66 1a 00 3d e5 1d 40 bc b9 8c c9 bd
       -0.08834246 0.031275176 -0.011725877 -0.09841294
0000f0 1c 62 2d bd 0c a9 21 ba 0f 59 06 bc b4 fe 8e 3c
       -0.042329893 -0.00061668525 -0.008199944 0.017455436
000100 44 59 d2 bd 9b f8 13 be 0f 99 b9 3d d7 a4 4c bd
       -0.10270932 -0.14450304 0.09062397 -0.04996189
000110 af 58 e6 3d 1c 4f 60 3d 2c 41 8a bd bf cb b5 bd
       0.11247384 0.054762945 -0.06750712 -0.08876752
000120 fa dc dd 3d 51 66 83 bd eb 8c 49 3d 30 ca 9f bb
       0.108331636 -0.06416 0.049206655 -0.0048763976
000130 c7 f8 4f 3d 91 2a e4 bd c9 9d 08 bc 57 0c 91 3d
       0.050774362 -0.111409314 -0.0083384 0.07082432
000140 17 55 f4 bc 2a ce e1 3d 86 1c 9b bd 7f 95 96 3d
       -0.02982573 0.11025651 -0.075738 0.07352733
000150 83 c9 c6 3c e6 a5 d2 bc a6 48 28 3e eb 4d 28 be
       0.02426601 -0.025713872 0.16433963 -0.16435973
000160 7f 1f ad bd 1b f0 be 3d af 85 2d 3c 3a 91 4d 3d
       -0.08453273 0.0932314 0.010590955 0.050187327
000170 b1 5d 03 3e e0 74 b6 3c 47 9f 87 bd 69 29 2d bd
       0.12828709 0.022272527 -0.066221766 -0.04227582
000180 8d 94 cd bd c5 61 fe 3d 02 53 01 3e 4e be af bd
       -0.100380994 0.12420992 0.12629321 -0.085812196
000190 f7 96 ae bd a6 73 60 bd 56 1e 16 3d f1 79 64 bd
       -0.08524888 -0.05479779 0.036650024 -0.055780355
0001a0 ba 9a a1 bd 95 d0 b0 bc 04 3d cd 3c 04 d6 a3 bd
       -0.0789084 -0.021583835 0.025053509 -0.079998046
0001b0 13 cc 8a bd 42 4a f6 bc e9 fa 2b 3d c6 76 5f 3c
       -0.06777205 -0.030064706 0.041987333 0.013639158
0001c0 71 4c 6f bd 8a 81 ce bd 8e d7 db bb 3d 85 aa bd
       -0.05842251 -0.10083301 -0.0067090457 -0.083261944
0001d0 56 3b a5 bc 6b 0b fc 3c 80 f5 11 3e 32 62 ac 3d
       -0.020169895 0.030767163 0.14253807 0.08417167
0001e0 44 8f 00 bd 04 5f 4c 3e 96 e9 2d be bd 68 7b bd
       -0.03138663 0.1995812 -0.16983637 -0.061379183
0001f0 54 11 47 bd 06 e3 d5 3d d0 67 77 3d 80 bd 4b 3d
       -0.04860051 0.10443692 0.060401738 0.04974127
000200 3f 65 1f be 08 ab 10 bd 0e 29 27 bd 94 37 1a 3d
       -0.15565966 -0.035319358 -0.040810637 0.03765066
000210 da 90 ba bc c0 b2 ac bd 95 a3 12 3c b4 a3 44 3b
       -0.022774149 -0.08432531 0.008950134 0.0030004801
000220 19 09 d2 3b 10 1e 1d 3c 3f 69 a6 3d 45 57 6e 3c
       0.006409776 0.009589687 0.08125543 0.014547174
000230 ec cd 1f 3e 55 d2 37 3d c3 e1 8d 3b 5f 00 07 be
       0.15605897 0.044878323 0.0043298914 -0.13183735
000240 8c 99 17 bd de 21 51 bc 44 42 a1 bb 72 ae 6c bd
       -0.037011668 -0.012764422 -0.0049212296 -0.05778355
000250 16 e1 9b 3d 59 56 51 3d 7e d4 ae bc d9 53 08 3e
       0.07611291 0.05110774 -0.021341559 0.13313235
000260 12 e7 cd 3c 5c d5 b8 3d a1 fb bd 3d cd 51 c0 bd
       0.025134597 0.0902507 0.0927651 -0.09390602
000270 81 14 a6 3d b3 22 e1 bc 3a c4 4f bd 94 43 d2 3c
       0.081093796 -0.027482366 -0.050724246 0.02566699
000280 fe 09 1e be 22 46 5b bd fb 06 71 3d 0d fa 13 be
       -0.15433499 -0.05353368 0.058844548 -0.14450856
000290 56 d9 af 3b 91 40 99 3d 20 89 35 bd 02 0d bf bd
       0.0053664846 0.07483018 -0.044320226 -0.09328653
0002a0 dc db 93 bd a4 b9 1c bd 60 28 e5 3d d3 cd 4d 3c
       -0.07219669 -0.03826298 0.111893415 0.012561279
0002b0 dc 7c d3 bd 79 b2 63 bd 94 a4 11 bd 03 9c 87 bd
       -0.103265494 -0.055590127 -0.035557345 -0.06621554
0002c0 3a 4b 1d 3d dd f5 0b be a5 72 96 3b 2a f8 ef 3d
       0.03840182 -0.13668008 0.0045913034 0.117172554
0002d0 be d3 f0 3d c1 2f da 3c 4f 38 60 3d f8 63 86 bd
       0.117591366 0.026634099 0.0547412 -0.06562036
0002e0 80 dd 37 3d c5 81 f8 3c cc 59 80 bc 88 61 95 3d
       0.044888973 0.030335316 -0.015667818 0.07293993
0002f0 40 e7 5c bd aa f0 76 3c 47 26 8d 3d fb f8 d4 3b
       -0.053931475 0.015072027 0.068920664 0.0064994073
000300 e8 94 fb bd b2 77 15 3d 8d 1d 18 bd 71 b8 12 be
       -0.12284261 0.036491103 -0.037137557 -0.14328171
000310 b3 23 a5 3d 1f 9a 23 bd 06 21 4a bd 2c 2f c2 3d
       0.0806345 -0.039941903 -0.0493479 0.094816536
000320 19 6c aa bc b3 19 07 3d 7a 08 87 bd b0 ae ff 3b
       -0.020803498 0.032983493 -0.06593414 0.007802807
000330 f3 ab 27 3d e2 6b cd 3c 4a b8 a9 3c 1d 86 57 3d
       0.040935468 0.025075857 0.020717759 0.052618135
000340 66 5f 28 3d 68 49 97 bc d9 de 99 bd d4 0d 97 3d
       0.041106604 -0.01846762 -0.07513208 0.073756844
000350 db 28 60 bd b8 9c 88 3c 2a bb 9f bc 50 ac 30 bc
       -0.054726463 0.016676292 -0.019498426 -0.01078327
000360 a0 e3 02 3d b4 71 1f 3d b4 4b 10 3b bb fc 92 3c
       0.03195536 0.038926795 0.0022017779 0.017942777
000370 ae 67 4a bc 37 9a 36 3d c5 ed c0 bd d1 37 3e 3d
       -0.012353821 0.044580664 -0.09420351 0.04643995
000380 c1 54 c5 3d 22 56 e3 bc 10 11 e9 bd 13 2d 72 bc
       0.09635306 -0.027751032 -0.113802075 -0.014781254
000390 4c a3 d6 bd b3 ed 79 bd e5 88 14 bd 1e ef bd bb
       -0.10480365 -0.061017703 -0.036263365 -0.0057963273
0003a0 fa 7c 9e 3d 22 a4 ed 3c 18 98 fc 3d db ce 32 3e
       0.07738681 0.029008929 0.12333697 0.17461722
0003b0 bc bd 0c be 69 66 e2 bd 46 21 08 bd a9 ea f4 bd
       -0.13744253 -0.110546894 -0.033234857 -0.119588204
0003c0 8a 18 76 bd bd af dc 3d 78 1f 20 3e 2e db 0a 3d
       -0.060081996 0.10775707 0.15637004 0.033900432
0003d0 cc 50 51 3d de 3d ec bc fe 9f ae 3d d1 71 46 3c
       0.051102445 -0.028838094 0.0852661 0.012112097
0003e0 df 21 cb 3d e1 e8 14 3d 11 8e f8 3d 43 a6 82 bb
       0.0991857 0.036354903 0.12136472 -0.003987105
0003f0 51 aa 75 bd 42 1e 60 3c ca 3e cf 3d c5 4c 62 3d
       -0.05997688 0.013679089 0.10119398 0.055248994

recommended/embedding_1/embeddings f4 [300, 1]
000000 ba 53 50 3e 97 c7 92 3e a5 58 01 3e c4 34 b1 3e
       0.20344439 0.286679 0.12631471 0.3461057
000010 8a bf 91 3e 7f b8 09 3f 6a 3a 61 3f da 85 b0 3e
       0.28466445 0.53797144 0.8797976 0.3447712
000020 8e c4 4e 3f 3a 74 21 3f 7a dc 4e 3e 28 61 53 3f
       0.8076867 0.6306797 0.20201293 0.82570124
000030 b6 1e 4e 3e 00 54 28 3f e0 59 b1 3e 9f fc ab 3e
       0.20128903 0.65753174 0.34638882 0.33591172
000040 e4 47 d4 3e 92 59 4c 3f 0b 21 17 3f d3 4b 5d 3d
       0.41461098 0.79824173 0.59034795 0.05402739
000050 69 47 b7 3e be 1e 53 3e d2 aa 09 3f 92 4a 93 3e
       0.3579667 0.20617196 0.53776276 0.2876783
000060 6d 25 2b 3f 91 28 50 3f 52 0b 7b 3e da 22 6d 3f
       0.6685398 0.813119 0.24516037 0.92631304
000070 14 26 e1 3e fe 39 28 3e 6b 74 60 3e 82 fa bf 3e
       0.43974364 0.16428372 0.2191941 0.3749581
000080 a5 b3 12 3e 32 1e 0a 3f 74 85 e2 bc 9a e1 31 3e
       0.14326341 0.53952324 -0.027651526 0.17371216
000090 e6 e7 04 3f 45 00 23 3f 90 31 25 3f 77 24 d4 3e
       0.5191635 0.63672286 0.6452875 0.4143407
0000a0 7d 16 9e 3d eb 23 82 3e a2 d5 e2 3e 5c 5a ef 3e
       0.07719133 0.25418028 0.44303614 0.46748626
0000b0 b5 cb 18 3f 4b 98 1e 3f 38 eb d9 be 9c e1 7a bd
       0.5968583 0.6195113 -0.4256227 -0.061250314
0000c0 f0 04 04 3e c5 72 61 bd f0 40 2c be f2 7e f9 3d
       0.12892509 -0.055041093 -0.16821647 0.12182416
0000d0 fe b4 3f be c7 a9 07 be 6a 17 60 bc be 25 33 be
       -0.18721387 -0.13248359 -0.013677457 -0.17494866
0000e0 4c 03 25 bf 68 12 bb be 20 69 ef bc dd 3b 7b bd
       -0.64458156 -0.3653748 -0.029224932 -0.061336387
0000f0 85 b4 d8 3e 90 43 38 3e 5f 61 ea be 75 ca 41 be
       0.42325225 0.17994523 -0.45777413 -0.18924887
000100 d4 f1 38 3d fe e0 04 bf 89 2e ac be ff ad 56 3e
       0.0451525 -0.5190581 -0.33629254 0.20964812
000110 f2 f5 01 bf db 0f e6 3e c0 e0 95 bd d8 fc 2d be
       -0.5076591 0.44933972 -0.07318258 -0.16990983
000120 34 0c 01 bf f8 97 af be 85 e6 32 3e 06 3f 42 be
       -0.50409245 -0.3429563 0.17470749 -0.18969354
000130 ed 7d 9c bd 6e 15 03 3f e1 84 6b be e5 1d 01 bf
       -0.07641206 0.51204574 -0.22999908 -0.5043624
000140 08 22 28 bf e6 f6 a6 3d 47 4e a3 bd bf 4a 70 3e
       -0.6567693 0.08152561 -0.079739146 0.23466013
000150 3e 68 07 be f5 af 10 be 82 cb 0c bd 80 7c 83 bf
       -0.13223359 -0.14129622 -0.034373768 -1.0272369
000160 23 f5 9e bd 31 81 23 bf fd 5f 19 bd 3d 8c 76 3e
       -0.077616 -0.63869005 -0.037445057 0.24076934
000170 73 80 cd bd ce 1d 1a 3c 90 18 1f 3e fb 3f a9 be
       -0.10034265 0.00940652 0.15536714 -0.33056626
000180 c6 44 d2 3e cf 9f 0a bd 51 de 27 3e 24 6a c1 be
       0.41068095 -0.03384381 0.163934 -0.3777629
000190 e8 50 b0 be 69 7c 38 be 62 db 08 be 8a 02 46 bd
       -0.34436727 -0.18016209 -0.13364938 -0.048342265
0001a0 59 db ae 3e 6f 26 bc 3c 6e 49 4b be 0d 06 ba 3e
       0.34151724 0.022967545 -0.1985223 0.3633274
0001b0 eb f5 ea bc f6 14 9e be ac 65 e2 3d e8 44 58 be
       -0.028681716 -0.30875367 0.110545486 -0.21120036
0001c0 5b 1d 54 3e e9 16 31 3e a9 e2 f1 3e 7a ed 03 bf
       0.20714323 0.17293896 0.4724324 -0.51534235
0001d0 ac 79 2f 3d 53 02 02 3e 86 e5 e8 be 8d 8f 56 3d
       0.042840645 0.12696199 -0.45487612 0.052382994
0001e0 54 50 88 bb 69 96 35 bd b8 17 62 bf e9 bc 33 be
       -0.0041599665 -0.044332895 -0.8831744 -0.17552532
0001f0 22 f8 1e be 62 b1 88 3e 3a 37 5e bc 74 a2 dd bd
       -0.15524343 0.26697832 -0.013562972 -0.10822001
000200 b1 58 ac bd e5 d7 b7 3e ed cb ad be 47 b3 cb bd
       -0.08415354 0.35906902 -0.33944646 -0.09946304
000210 4b fa 02 be 36 e1 b2 3d 21 fa 38 be 90 d7 0b bf
       -0.12790792 0.08734362 -0.18064167 -0.546258
000220 b3 05 9e 3e 7c 15 0a be 61 11 1b 3d 64 22 1b 3e
       0.30863723 -0.13484758 0.03785837 0.15149838
000230 c5 04 8a 3e ab f0 88 be 67 e8 6f 3e 7d b0 0e bd
       0.26956764 -0.26746115 0.23428498 -0.03483628
000240 11 f9 86 be 13 f0 d5 be 81 dd cb bd ed 9b 5e be
       -0.26361898 -0.41784725 -0.09954358 -0.21739168
000250 00 c1 c5 39 a9 e5 19 3f ac 2d 35 3e cd 51 cc 3c
       0.00037718564 0.6011606 0.17693204 0.02494135
000260 42 64 e1 be ad be 17 3f 33 e4 e9 be e2 03 9b 3e
       -0.44021803 0.59275323 -0.45681915 0.302764
000270 2b ca ae bd 1b 9c b1 3d 38 69 27 be 1a 6e f5 bd
       -0.08534654 0.08672353 -0.16348732 -0.11983891
000280 cd d9 40 3d 4b 30 d8 bb 17 97 4a 3e 50 e3 fa bd
       0.04708271 -0.006597554 0.19784199 -0.12250388
000290 6f a2 47 3e 08 d3 96 3d 92 f2 a8 3d 3d 35 a8 3e
       0.19495557 0.0736447 0.082493916 0.32853118
0002a0 06 f9 64 3d c2 65 6c be 71 56 17 be fb 00 60 bd
       0.05590155 -0.23085693 -0.14779069 -0.054688435
0002b0 7c 98 8c be 51 04 7e be 99 e4 9b 3c b1 62 89 bd
       -0.27460086 -0.24806334 0.019029902 -0.06708277
0002c0 e3 7e 92 3e 38 7c 6b bd fb aa 1b be 24 03 aa be
       0.28612432 -0.05749151 -0.15201943 -0.3320552
0002d0 4f 9a 13 3d 04 83 a2 be 9e 35 35 be a8 fa 9b bd
       0.036035832 -0.31740582 -0.17696235 -0.07616168
0002e0 07 fb 36 be 54 17 6a 3d 1f d9 6c bd da 62 50 bf
       -0.17869197 0.057151154 -0.05782425 -0.81400836
0002f0 9b 4d c5 3e 75 04 06 be ab a8 34 be 58 25 18 be
       0.3853577 -0.13087638 -0.17642467 -0.14857996
000300 68 c1 03 be f5 89 b1 bd f3 9c 1b be 40 17 de bd
       -0.12866747 -0.08668891 -0.1519659 -0.10844278
000310 41 ca a5 3e f6 b3 19 be 01 e2 5d be ad e1 57 be
       0.3238087 -0.15010056 -0.21668245 -0.21082182
000320 27 f0 b0 3d 0a 32 9a 3e da b4 2e bd c9 10 2c be
       0.086395554 0.30116302 -0.042652942 -0.16803278
000330 54 42 d5 3d b7 8b 45 be 4b 8c 35 3e d0 5e 97 3a
       0.10413042 -0.19291578 0.17729299 0.0011548642
000340 05 e6 40 3e 48 56 a6 be 56 a9 9f 3d 1e 1b 55 3e
       0.18837745 -0.32487702 0.0779597 0.20811126
000350 cc 61 4c 3e fc 01 5f 3d d1 bf b6 3e f1 00 5c 3d
       0.19959182 0.05444525 0.3569322 0.053711835
000360 1f b9 0b bf 79 bf de be 01 9d 09 3d cc 50 a7 be
       -0.5457935 -0.43505457 0.033596996 -0.3267883
000370 c2 51 12 bd cb 6b 4a be e2 98 ad bc fd fc ce 3d
       -0.0357225 -0.19767682 -0.021191064 0.101068474
000380 25 f7 ba 3d 28 b4 ef 3d d6 16 89 3b d6 73 97 3e
       0.0912917 0.11704284 0.0041836305 0.29580563
000390 c3 bc ac bd 51 fa 33 be b4 be c2 3b f7 51 62 be
       -0.08434441 -0.17575957 0.0059431437 -0.2210158
0003a0 a9 c2 42 3e bc 00 3e be bf be 3c 3c 9f d5 dc be
       0.1901957 -0.18554968 0.011520087 -0.4313173
0003b0 27 72 a7 be dd e6 59 3e 49 d2 58 3d 48 84 9e be
       -0.3270428 0.21279474 0.05293492 -0.30960298
0003c0 79 5d d9 bd 4c a3 e9 3e 9f 99 ce 3b 4d d0 0a be
       -0.106135316 0.45632398 0.006304934 -0.13556023
0003d0 b0 4b 64 be 3f 7c 99 be f1 f1 51 3e c8 d5 dc 3e
       -0.22294497 -0.29977605 0.2050245 0.43131852
0003e0 16 71 5d bf aa 73 a4 3e 2e 68 45 be dc e6 4c 3e
       -0.8650068 0.32119495 -0.19278023 0.20009941
0003f0 12 ec a2 be 7b a3 04 3d 3b 70 61 3e 64 07 c0 3e
       -0.31820732 0.03238247 0.22015469 0.3750564

recommended/embedding/embeddings f4 [300, 50]
000000 b5 9e 55 bc 7f 5c 95 bc b1 ee d8 bc ab f9 79 bd
       -0.013038327 -0.018232582 -0.026481004 -0.061029118
000010 0b 50 e4 3d ab f4 c4 bd 6c 0c f8 bd d3 07 d8 3b
       0.111480795 -0.09616979 -0.12111744 0.0065927296
000020 c1 9a 4a bd 3b 89 00 bd 3d 36 d3 3d 1a a9 b5 3d
       -0.04946399 -0.031380873 0.103130795 0.08870144
000030 1e 2f 14 3d 3c 7c bf bd 1e b9 eb 3d bc 1d 57 3d
       0.036177747 -0.09349868 0.11509918 0.05251859
000040 06 85 c0 bd 5b ef 8f 3d e2 1f cd bd 6f a4 c9 3d
       -0.09400372 0.07028075 -0.10015847 0.09845816
000050 e1 bf 9d 3d 21 c3 93 3c d4 d9 4f bc 79 bc 29 3d
       0.077026136 0.01803738 -0.012686212 0.041439507
000060 6b ad 1b bd f8 76 12 3d f3 f8 8b 3d 78 e6 05 bd
       -0.03800718 0.03575799 0.06834593 -0.032690495
000070 91 40 0a 3d 82 9c b9 bd 46 19 79 bd 94 4f ca 3d
       0.03375298 -0.090630546 -0.06081512 0.098784596
000080 91 37 36 3e a8 26 e3 bc e5 f3 78 bd 90 39 23 bc
       0.17794634 -0.027728394 -0.06077947 -0.009962454
000090 59 0f d3 3c f5 fb 39 be f0 45 98 3c 9f 77 6c 3c
       0.025764154 -0.1816252 0.018588036 0.014432817
0000a0 f6 a9 e7 3b 6d 4f 1e 3d c7 36 86 bc e5 c2 a4 bd
       0.0070698215 0.038649965 -0.016383542 -0.08044986
0000b0 32 07 1b 3c 1c 1c ba bd 11 d9 86 bc f2 33 8b bd
       0.009462165 -0.09087393 -0.016460927 -0.06797017
0000c0 89 2e 21 3d 43 8d cd 3d e0 35 a6 bc 39 a1 ba bd
       0.03935102 0.10036709 -0.020289361 -0.09112782
0000d0 67 09 29 bc 54 79 6a 3d cc 0d 9b 3d 48 18 cd bc
       -0.010317183 0.057244614 0.07570991 -0.025035992
0000e0 65 c5 09 3e fb a5 de bc 7f 25 c2 bd 65 50 13 3d
       0.13454206 -0.027178755 -0.09479808 0.035965342
0000f0 6d 3f 71 bd 0a e4 95 bd d2 55 a5 bc d6 a7 0d 3d
       -0.05889838 -0.073188856 -0.020182524 0.03458389
000100 1a 2d 08 3b 61 7a 01 3e 25 b5 72 bd c4 97 e6 3d
       0.0020778836 0.1264434 -0.059254784 0.11259416
000110 f0 60 1e bd 08 98 15 3d 1e e0 9c bb 3d ee f7 3c
       -0.038666666 0.03652194 -0.004787459 0.030264968
000120 76 8b 94 bc 2f 97 7f bd a8 4c c5 bc 4c f5 7e 3c
       -0.018132906 -0.06240004 -0.024084404 0.015561413
000130 f9 0e f3 3d b0 ee a5 bd e8 28 c4 3c cb c7 a7 bd
       0.1186809 -0.08102167 0.023945287 -0.08192404
000140 cd bd 93 bd 52 0d 12 be 61 d6 5d 3d d6 0a a0 3d
       -0.07213936 -0.14262894 0.054159526 0.07814567
000150 53 ce eb 3c 9c 2e 84 bd 9d 72 7f 3a ee 66 47 bd
       0.028784906 -0.064542025 0.0009744557 -0.048682146
000160 0c 2e cc bc 74 f6 5d 3d 9c d5 c7 bb 09 0b a3 3d
       -0.0249243 0.054190114 -0.0060984623 0.07961089
000170 f9 ca 6c 3d f0 3e 30 3d 66 1d c2 bc 26 34 31 bd
       0.057810757 0.043028772 -0.023695659 -0.043262623
000180 ac e8 87 3d 7e eb 9c bd 5f 61 e2 bd 14 64 04 3d
       0.066361755 -0.07662104 -0.11053728 0.032322004
000190 1c 24 f7 3c fd 53 d5 3a 6a cb 03 bc 6c c4 6d bd
       0.030168585 0.0016275641 -0.008044103 -0.05804865
0001a0 bf a3 f2 3d 8b 7e a9 3c 8a ac 4e bc f8 9c f5 bc
       0.11847638 0.020690223 -0.012614379 -0.029982075
0001b0 6f 77 90 bc 8a fe cc 3d 17 93 f4 3b 39 c3 bb bc
       -0.017635075 0.10009487 0.0074638235 -0.022920238
0001c0 85 8c d3 bd 0f 1f dc bd 07 86 7c 3d ad 38 05 bd
       -0.10329536 -0.107481115 0.061651256 -0.032524753
0001d0 e1 8c a4 3d ee 97 11 be fb 6e 83 3d f4 25 f3 bb
       0.08034683 -0.14218113 0.06417652 -0.007420296
0001e0 fa 70 cd 3d 46 ed b2 3d 27 e9 d3 bc 7d 3b b2 bc
       0.10031314 0.087366626 -0.025868012 -0.021756882
0001f0 cb 82 33 3d 19 5c 78 3d 87 1f da 3c ba e1 35 3d
       0.043825906 0.060634706 0.026626362 0.044404723
000200 77 07 b0 bc 20 ba 0e bc 60 7e e9 bc d3 42 99 3d
       -0.021487935 -0.008711368 -0.028502643 0.07483449
000210 5c ff 46 3c 69 22 ae bd 67 49 af bd 4a dd 7d 3d
       0.012145843 -0.08502657 -0.08558922 0.061978616
000220 63 37 6a bd bf 4c 37 3d be 11 e9 3c 33 31 d5 bc
       -0.057181727 0.044750925 0.028450843 -0.026024437
000230 aa 20 56 3d 7e 9c a0 bd 6b 22 18 bd 66 04 92 3c
       0.052277245 -0.078423485 -0.0371422 0.017824363
000240 6b 8d 9e bc b6 eb bc bd 41 be 00 3e 4b 62 34 bd
       -0.019354543 -0.09224646 0.12572576 -0.044039052
000250 7c 2c 98 3c 93 01 0c 3d a6 39 a5 3c 23 ad 35 3d
       0.0185759 0.03418119 0.02016909 0.04435457
000260 7f 55 c1 3d 72 12 8a bd 76 2e 6d 3d 7f 61 bd 3c
       0.09440135 -0.067417994 0.057905637 0.023117779
000270 f0 c3 b6 3a 4c c6 82 bd 5e 49 5e bd 69 ca 20 be
       0.0013943892 -0.063854784 -0.054269187 -0.15702213
000280 39 26 c2 bc a2 1c a2 bc 81 27 a3 bd aa 60 a7 bc
       -0.023699867 -0.019789044 -0.07966519 -0.020431835
000290 60 54 54 3c a1 d0 41 3d 6d 4a e6 bc 9c 39 0b 3d
       0.01295957 0.047318105 -0.02811166 0.033990487
0002a0 2e af 6e 3d 8f f7 ce bd 99 9a 93 bd f3 cc f6 3d
       0.058272533 -0.10105812 -0.072072215 0.1205081
0002b0 46 dc f3 bd 79 2d c4 3c b7 9f b5 bc 58 61 f5 bd
       -0.11907248 0.023947464 -0.022170885 -0.119814575
0002c0 36 d1 23 3c e4 12 0f 3d 58 f9 1e bd 14 0d 34 bc
       0.00999861 0.034930125 -0.03881201 -0.010989446
0002d0 1f 36 e0 bd c5 37 53 3d 72 c6 bb 3d ee 16 e4 3d
       -0.10947823 0.051566858 0.0916871 0.11137186
0002e0 05 ee 8a bc 27 20 7a bb fe c2 51 3d f8 b2 bf bc
       -0.0169592 -0.0038166137 0.05121135 -0.023400769
0002f0 ec b8 a7 bc 51 62 e3 bd fd 8a a1 bc 0a b3 5a 3d
       -0.02047392 -0.11102737 -0.019719595 0.0533934
000300 49 8b 87 bc ae bd 10 be 56 39 e7 bc 29 bc 10 bb
       -0.016545909 -0.14134857 -0.028225582 -0.0022084808
000310 a8 4e 69 3d 34 66 bc 3c 16 fc f3 3a c6 52 6c bc
       0.056959778 0.022997953 0.0018614556 -0.014424032
000320 08 01 db bc c5 ec 30 bd f1 44 2d 3c df 47 d2 3c
       -0.02673389 -0.04319455 0.010575519 0.025669036
000330 39 a5 4a bd ce fd bf 3d e2 2d e9 3c d3 86 bd bc
       -0.049473975 0.09374581 0.028464261 -0.023135578
000340 fe a7 5f 3d a7 38 03 bd eb bf 14 be d0 9d d5 3b
       0.05460357 -0.03203645 -0.14526336 0.006519057
000350 13 02 8f bd 78 e9 b1 3c 3a 8b e1 3c 98 cf 02 be
       -0.069828175 0.021717772 0.027532209 -0.12774503
000360 2b eb be 3d 82 28 86 bc 4d d3 80 bd 67 ad bf 3d
       0.093221985 -0.016376738 -0.062903024 0.09359246
000370 71 03 a5 3d 16 7a c3 3b 6f a5 77 3c 11 f6 87 bd
       0.08057297 0.0059654815 0.015115126 -0.0663873
000380 e3 56 f0 bc 74 9d 27 3d b6 88 94 ba 91 86 99 3d
       -0.029338306 0.040921643 -0.0011332247 0.0749637
000390 5a e4 cd bb 3e ce 8f 3c dd 6d aa 3d f4 41 98 3d
       -0.006283325 0.017554399 0.08321736 0.074344546
0003a0 81 46 d4 bc 7d ac 0c bd 91 5e ba 3b ed ef 62 3d
       -0.025912525 -0.034344185 0.0056875427 0.055404592
0003b0 ac d9 87 bd 30 6c 1f 3d 78 96 6c 3d e1 89 21 bd
       -0.066333145 0.038921535 0.057760686 -0.039438132
0003c0 a9 be 93 3c 2d f4 00 3c b4 70 39 bd 47 cc 2a 3d
       0.01803525 0.007870716 -0.045273498 0.04169872
0003d0 85 30 aa 3c 95 56 fa bc 46 d4 ff bc 64 65 83 bd
       0.020775089 -0.030558864 -0.03122915 -0.06415823
0003e0 91 6e 32 bd f4 c2 16 3d 53 5c 77 bc 22 09 44 3d
       -0.043562476 0.036807016 -0.015097695 0.047860272
0003f0 25 9e 39 3e 85 0c c6 bc 07 20 00 bd c2 b0 b9 3d
       0.18126734 -0.024175892 -0.031280544 0.09066917
