ML/model/tiflite_model/model_hotel_bali.tflite (tflite, 76476 bytes, 4 tensors)

recommended/embedding_3/embeddings f4 [49, 1]
-0.005377063 -0.052176762 -0.07043372 0.08333528 0.30709755 0.020035712 -0.05217756 0.12522814
-0.10378943 0.12506048 -0.0045283367 -0.0367824 0.017855607 0.04905545 -0.05509614 -0.0022466623
0.14565708 -0.048837304 0.15322849 0.21782531 0.05282078 0.1045949 -0.016040334 0.037463635
-0.07616198 0.019201852 -0.014430882 0.012200787 0.039711233 0.13952762 -0.016032401 0.06625398
0.03814085 0.17552748 0.019881602 -0.044911847 -0.07103666 -0.2461526 -0.10672135 0.009636524
-0.1887976 -0.11142999 -0.002123011 0.04003884 0.15678643 -0.16086529 -0.20046717 0.037483
0.08185379
00000000: 1332 b0bb 4db7 55bd 8e3f 90bd b0ab aa3d
00000010: e43b 9d3e ef21 a43c 23b8 55bd ce3b 003e
00000020: 8d8f d4bd db0f 003e 7162 94bb 24a9 16bd
00000030: ec45 923c 5eee 483d 7dac 61bd bd3c 13bb
00000040: 2127 153e a009 48bd eee7 1c3e 990d 5f3e
00000050: 9a5a 583d da35 d63d 0567 83bc 7873 193d
00000060: d0fa 9bbd 344d 9d3c 826f 6cbc cfe5 473c
00000070: 3fa8 223d 54e0 0e3e 6256 83bc 2bb0 873d
00000080: 9439 1c3d 7abd 333e bede a23c 7cf5 37bd
00000090: ab7b 91bd 6d0f 7cbe b990 dabd 83e2 1d3c
000000a0: 2854 41be 6835 e4bd 3722 0bbb c4ff 233d
000000b0: 9f8c 203e dfb9 24be 4447 4dbe c687 193d
000000c0: f6a2 a73d

recommended/embedding_2/embeddings f4 [49, 50]
-0.059971064 0.16634421 -0.062598564 -0.0425296 0.04910105 -0.15507469 -0.20373997 0.06662855
0.04582447 0.23956424 0.020930601 -0.2287984 0.13505325 -0.0076542366 0.06462065 0.114659205
-0.0998097 -0.004311507 -0.1208193 0.27231705 0.040245347 0.07244585 -0.2110683 0.033206485
-0.015989343 0.1487116 -0.25806385 0.040625654 -0.008350559 -0.05271689 -0.047322497 -0.039271504
-0.010777108 -0.14242312 -0.17886636 -0.018029233 0.17671911 0.049711205 0.08805972 -0.27581385
-0.03519572 -0.055236034 -0.05278017 -0.052187115 -0.19522692 0.13007261 0.077988766 -0.0027344986
-0.041159216 0.2534899 -0.015173849 0.078072876 0.015597792 -0.16056627 0.10161281 -0.030573476
-0.093290485 -0.0257055 0.24999402 -0.02739798 -0.1306353 0.16267289 -0.0027257684 0.0343147
-0.10565302 -0.030043015 0.19983727 -0.13182923 0.08962205 -0.03214451 0.22982964 -0.039812874
0.20486425 -0.07704959 0.025417048 0.058750957 0.14547415 0.052046373 0.13158126 -0.057720307
-0.11457924 0.28880677 0.15096389 0.18326232 0.19467647 0.084440075 0.17270872 -0.13834207
-0.24096856 0.19563575 -0.20270967 -0.032904465 0.07868389 0.032991067 -0.0027624685 -0.04437799
0.007941982 0.0057590697 0.05133147 0.09480128 0.030972587 -0.021194903 -0.06664729 0.021396983
-0.063014634 -0.026066648 0.13223374 -0.116638474 -0.1054135 0.044115912 -0.10803364 -0.18344256
0.016994823 0.15269859 -0.08948009 -0.007338456 -0.014677818 -0.11811677 0.03515954 -0.064116985
-0.23516151 -0.047633152 -0.06571613 0.074759 -0.134534 -0.17949054 -0.031429578 -0.1345843
-0.12914743 -0.082795426 -0.13795638 -0.11629088 -0.04718065 -0.029303003 0.011143639 -0.15791784
-0.029060591 0.12570031 -0.04507468 0.032410245 -0.0953104 -0.032922078 -0.19421084 0.18172757
0.17914519 0.046490315 -0.029958798 0.025328428 -0.21767762 0.12974553 0.039178513 -0.14225933
-0.030269522 0.090218835 0.23258786 0.21391185 0.12390638 -0.03192827 0.009476358 -0.054983657
0.007069394 0.2713022 0.03287864 0.085606135 0.032063738 0.22445694 -0.09122713 -0.24282934
0.043818966 -0.048971295 0.115516886 0.09738478 -0.18079981 0.0036898488 0.104258046 0.07300443
0.052538164 -0.032945737 -0.03694356 0.014645496 0.023368374 0.07903636 -0.09751188 0.033680998
0.18215516 0.021066725 0.08774239 -0.014647228 -0.09383007 -0.0038448353 -0.07535443 -0.040668618
0.082556725 -0.06754148 -0.050197303 -0.22058691 0.03779847 -0.015709132 0.13096713 -0.072633885
-0.079182215 0.08251184 -0.043160148 -0.10492869 0.088387646 0.07135805 0.12545796 -0.006997177
-0.09935894 0.021344623 0.15499158 -0.12683612 0.12964466 -0.10477626 0.21534091 0.21711312
-0.016313942 -0.07560282 0.016777378 0.02661823 -0.16449873 -0.06494528 -0.117648564 0.101524964
-0.014479537 -0.0815418 -0.025942612 0.01877409 -0.03843632 -0.04293342 -0.085991174 -0.019300943
0.0043971576 -0.124720365 -0.08358541 0.11191335 -0.13280667 -0.17577936 0.0011196113 -0.19246973
-0.040612776 0.16326162 0.11035771 0.0036412156 0.13788442 -0.0034994883 -0.066355444 -0.21092036
-0.005040048 0.21913281 0.06849731 -0.1502993 0.10028059 -0.10438945 -0.14296106 0.075458564
00000000: 38a4 75bd 2356 2a3e ad33 80bd 8533 2ebd
00000010: 2f1e 493d e6cb 1ebe 36a1 50be 8d74 883d
00000020: 71b2 3b3d 5450 753e a776 ab3c 214a 6abe
00000030: 664b 0a3e 64d0 fabb d557 843d 72d2 ea3d
00000040: 0769 ccbd 8b47 8dbb 1c70 f7bd 246d 8b3e
00000050: 4ed8 243d 7d5e 943d 4a22 58be 8603 083d
00000060: 15fc 82bc db47 183e f220 84be 1667 263d
00000070: c8d0 08bc aaed 57bd 3cd5 41bd 28db 20bd
00000080: 7892 30bc 5ed7 11be be28 37be 0bb2 93bc
00000090: dbf5 343e fa9d 4b3d a858 b43d 7937 8dbe
000000a0: 6329 10bd 2e3f 62bd 0530 58bd 28c2 55bd
000000b0: 91e9 47be c131 053e 93b8 9f3d 4635 33bb
000000c0: 9196 28bd 6ec9 813e bc9b 78bc ace4 9f3d
000000d0: e28d 7f3c 7c6b 24be 601a d03d 3a75 fabc
000000e0: 150f bfbd 5794 d2bc 6ffe 7f3e bb71 e0bc
000000f0: 43c5 05be b993 263e cea2 32bb 928d 0c3d
00000100: 9c60 d8bd c51c f6bc 24a2 4c3e 3efe 06be
00000110: c48b b73d f6a9 03bd 7658 6b3e d312 23bd
00000120: efc7 513e 2dcc 9dbd 6a37 d03c d8a4 703d
00000130: 2df7 143e 942e 553d 3dbd 063e 216c 6cbd
00000140: 85a8 eabd 7bde 933e 4796 1a3e 1ea9 3b3e
00000150: 4559 473e ebee ac3d 8eda 303e 8ba9 0dbe
00000160: 76c0 76be bd54 483e 2093 4fbe d5c6 06bd
00000170: 0525 a13d a421 073d 880a 35bb b2c5 35bd
00000180: 161f 023c 94b6 bc3b f340 523d 2c27 c23d
00000190: 39ba fd3c efa0 adbc 607e 88bd ba48 af3c
000001a0: d10d 81bd b989 d5bc 4868 073e 27e0 eebd
000001b0: 08e3 d7bd e3b2 343d be40 ddbd 5ed8 3bbe
000001c0: ba38 8b3c 055d 1c3e 5641 b7bd 6e77 f0bb
000001d0: 3b7b 70bc 35e7 f1bd 7303 103d c44f 83bd
000001e0: 2ece 70be fb1a 43bd 2e96 86bd 3f1b 993d
000001f0: 48c3 09be 5ecc 37be 4dbc 00bd 77d0 09be
00000200: 393f 04be a690 a9bd 7044 0dbe ea29 eebd
00000210: 7f40 41bd da0c f0bc cf93 363c 37b5 21be
00000220: 7a10 eebc 95b7 003e 3aa0 38bd 9bc0 043d
00000230: 1932 c3bd 4dd9 06bd 35df 46be cb16 3a3e
00000240: d671 373e a16c 3e3d 276c f5bc 907d cf3c
00000250: e2e6 5ebe 03dc 043e a679 203d 6eac 11be
00000260: caf7 f7bc a7c4 b83d 832b 6e3e b50b 5b3e
00000270: a1c2 fd3d 38c7 02bd ba42 1b3c 8b36 61bd
00000280: 60a6 e73b 1fe8 8a3e c1ab 063d 4552 af3d
00000290: 4455 033d 0ad8 653e 4ad5 babd 41a8 78be
000002a0: 847b 333d 2096 48bd 1e94 ec3d ac71 c73d
000002b0: 9623 39be 64d1 713b 3e85 d53d 5983 953d
000002c0: 4232 573d 1cf2 06bd 2152 17bd aaf3 6f3c
000002d0: 086f bf3c d1dd a13d 4fb4 c7bd 16f5 093d
000002e0: e286 3a3e 2094 ac3c 48b2 b33d edfa 6fbc
000002f0: fb29 c0bd a2f9 7bbb 6c53 9abd 2394 26bd
00000300: 8013 a93d 3053 8abd b09b 4dbd 89e1 61be
00000310: 92d2 1a3d 70b0 80bc 3f1c 063e 13c1 94bd
00000320: 492a a2bd f8fb a83d b2c8 30bd dae4 d6bd
00000330: 9504 b53d 2b24 923d 0d78 003e 9348 e5bb
00000340: b37c cbbd ebda ae3c 1db6 1e3e 54e1 01be
00000350: 92c1 043e f094 d6bd 5482 5c3e e752 5e3e
00000360: d1a4 85bc a7d5 9abd b670 893c 790e da3c
00000370: 5b72 28be 0802 85bd bbf1 f0bd 52ec cf3d
00000380: 943b 6dbc 63ff a6bd 9a85 d4bc 1fcc 993c
00000390: 676f 1dbd f4da 2fbd 241c b0bd 031d 9ebc
000003a0: 0816 903b 646d ffbd d42e abbd d432 e53d
000003b0: 79fe 07be 81ff 33be ecbf 923a c916 45be
000003c0: 9559 26bd 0e2e 273e 3903 e23d 76a1 6e3b
000003d0: 9331 0d3e ac57 65bb 5de5 87bd 82fb 57be
000003e0: fd26 a5bb 5a64 603e 5148 8c3d 0fe8 19be
000003f0: e95f cd3d 23ca d5bd 6264 12be 058a 9a3d

recommended/embedding_1/embeddings f4 [300, 1]
0.18511839 0.2944493 0.11608946 0.28489757 0.26363128 0.45676553 0.80076593 0.28755048
0.72582376 0.62336373 0.19079117 0.70369226 0.16708778 0.60792345 0.33081764 0.28825065
0.41053554 0.6661069 0.5451165 0.046622053 0.30755183 0.15894955 0.49217287 0.28942898
0.657499 0.70521355 0.20774235 0.8732064 0.40349764 0.120253146 0.16504791 0.33167547
0.15374 0.5147943 0.039877217 0.1586591 0.48115057 0.5619138 0.58155495 0.38277906
0.045535136 0.21683967 0.38568074 0.44613838 0.5314004 0.57872015 -0.3713101 -0.08340104
0.115285136 -0.053499594 -0.14796704 0.10853075 -0.16888893 -0.105190754 -0.039503336 -0.09600368
-0.5383028 -0.34476644 -0.053337682 -0.08239684 0.3699855 0.13745087 -0.40916628 -0.14297342
0.021164222 -0.45236304 -0.3251124 0.20679119 -0.45711204 0.40403262 -0.0040804967 -0.1356616
-0.45924112 -0.29511416 0.099626474 -0.17304265 0.01191359 0.47680575 -0.17481776 -0.52602935
-0.5640561 0.020385588 -0.12173524 0.17311803 -0.12511826 -0.16093071 -0.11110091 -0.8384287
-0.045259785 -0.5955724 -0.027579276 0.23967673 -0.09163487 0.010792762 0.12004956 -0.28926516
0.37094915 -0.09072193 0.13680123 -0.34945872 -0.260685 -0.17547345 -0.16502748 -0.058871612
0.30334452 0.032201342 -0.14352301 0.25825727 -0.09335033 -0.23968586 0.10630565 -0.18758184
0.18394634 0.12756091 0.4082209 -0.48536965 0.04835158 0.123218805 -0.3991107 -0.00750328
-0.035546966 -0.040431608 -0.7627548 -0.1601084 -0.16934313 0.2477537 -0.00758534 -0.13579321
-0.051554505 0.31332392 -0.3345509 -0.08090797 -0.12449197 0.05147765 -0.15520063 -0.53821886
0.27305263 -0.118032865 0.043035366 0.13445972 0.22743228 -0.25280207 0.20700295 -0.016961932
-0.19591492 -0.38184592 -0.05759873 -0.18076974 -0.05000127 0.53282684 0.20365821 0.053745963
-0.35454348 0.5351425 -0.50126463 0.25487873 -0.07072115 0.037202574 -0.16859774 -0.07061011
0.015551446 0.016975058 0.17699067 -0.13629346 0.21240121 -0.01182449 0.050234884 0.2702277
0.0472187 -0.19568238 -0.17981945 -0.06464231 -0.28708404 -0.20078452 0.030402776 -0.026028639
0.21880917 -0.055318348 -0.118704006 -0.33313578 0.031268746 -0.27751485 -0.14350207 -0.018789912
-0.1936728 0.041093946 -0.042186346 -0.6981781 0.32058498 -0.12921257 -0.17376438 -0.10518279
-0.1276852 -0.066133626 -0.1652335 -0.1386916 0.2581789 -0.1660738 -0.1919208 -0.1864647
0.070681356 0.22970714 -0.013182789 -0.13533849 0.046281442 -0.13019428 0.10751857 0.027977623
0.2124449 -0.32141817 0.058092456 0.1189893 0.16044503 0.04272563 0.31926754 0.07886344
-0.48576662 -0.41904742 -0.030640684 -0.26633814 -0.006814771 -0.19066268 -0.056714755 0.10662945
0.10727757 0.08565143 0.01378885 0.31932878 -0.10432992 -0.18710412 -0.027355732 -0.21183915
0.14402549 -0.16046076 0.04280617 -0.34765238 -0.34537497 0.15436676 0.028156418 -0.274861
-0.13027352 0.39685416 0.009202936 -0.13549942 -0.23150145 -0.29410636 0.14533582 0.39840814
-0.7747378 0.2786167 -0.20351414 0.22702484 -0.2590946 0.047093596 0.19183774 0.3396236
00000000: ad8f 3d3e 0fc2 963e 50c0 ed3d 18de 913e
00000010: aefa 863e 2cdd e93e fffe 4c3f d139 933e
00000020: 96cf 393f c494 1f3f c35e 433e 2d25 343f
00000030: 0f19 2b3e dfa0 1b3f ee60 a93e 9795 933e
00000040: b731 d23e fb85 2a3f c18c 0b3f c4f6 3e3d
00000050: 6f77 9d3e acc3 223e 15fe fb3e 0930 943e
00000060: db51 283f e088 343f 69ba 543e 748a 5f3f
00000070: 3e97 ce3e 4847 f63d 5202 293e 5ed1 a93e
00000080: 056e 1d3e 8fc9 033f 4b56 233d 8877 223e
00000090: 5e59 f63e 95d9 0f3f c9e0 143f 9efb c33e
000000a0: 0d83 3a3d 380b 5e3e f277 c53e 406c e43e
000000b0: db09 083f 0127 143f 5c1c bebe 2ace aabd
000000c0: 9d1a ec3d 6422 5bbd ac84 17be 5f45 de3d
000000d0: 38f1 2cbe 406e d7bd 40ce 21bd 949d c4bd
000000e0: 36ce 09bf 3a85 b0be 9d78 5abd adbf a8bd
000000f0: bd6e bd3e ecbf 0c3e 3e7e d1be a067 12be
00000100: 9760 ad3c 219c e7be 2275 a6be 12c1 533e
00000110: 970a eabe 5ddd ce3e b0b5 85bb e0ea 0abe
00000120: a721 ebbe 3419 97be f708 cc3d 1832 31be
00000130: 3831 433c e21f f43e 6d03 33be dca9 06bf
00000140: fb65 10bf adff a63c 5350 f9bd da45 313e
00000150: 001f 00be 05cb 24be e088 e3bd 43a3 56bf
00000160: 5362 39bd 6f77 18bf efed e1bc d16d 753e
00000170: 10ab bbbd 20d4 303c 8bdc f53d 901a 94be
00000180: 0ced bd3e 6bcc b9bd 9f15 0c3e 41ec b2be
00000190: 8178 85be 50af 33be f7fc 28be 5c23 71bd
000001a0: f94f 9b3e 8ee5 033d b2f7 12be 4c3a 843e
000001b0: 752e bfbd 3670 75be c7b6 d93d 7415 40be
000001c0: 6e5c 3c3e 549f 023e 5402 d13e 5f82 f8be
000001d0: 4e0c 463d 245a fc3d 3d58 ccbe 13de f5bb
000001e0: b299 11bd 9d9b 25bd e643 43bf 75f3 23be
000001f0: 4968 2dbe 25b3 7d3e 728e f8bb 600d 0bbe
00000200: d12a 53bd fe6b a03e 414a abbe 14b3 a5bd
00000210: a5f5 febd 3ada 523d eaec 1ebe b6c8 09bf
00000220: 8ecd 8b3e 37bb f1bd da45 303d cfaf 093e
00000230: 02e4 683e 466f 81be 95f8 533e c0f3 8abc
00000240: ec9d 48be 4f81 c3be a5ec 6bbd b41b 39be
00000250: 22ce 4cbd 5767 083f c78b 503e ba24 5c3d
00000260: b986 b5be 19ff 083f e152 00bf 777f 823e
00000270: 40d6 90bd ba61 183d e3a4 2cbe 099c 90bd
00000280: 7ecb 7e3c 470f 8b3c 0b3d 353e 8390 0bbe
00000290: b47f 593e 81bb 41bc 18c3 4d3d 495b 8a3e
000002a0: 6568 413d f660 48be 9722 38be 3063 84bd
000002b0: aefc 92be 759a 4dbe 3e0f f93c 033a d5bc
000002c0: 830f 603e 7e95 62bd 161b f3bd c690 aabe
000002d0: a813 003d 6d16 8ebe 35f2 12be 4ded 99bc
000002e0: 2a52 46be 2052 283d 97cb 2cbd cdbb 32bf
000002f0: b723 a43e 4d50 04be 4aef 31be 136a d7bd
00000300: e9bf 02be 1171 87bd f832 29be 2c05 0ebe
00000310: 0630 843e 400f 2abe e386 44be 9af0 3ebe
00000320: 63c1 903d 5938 6b3e a0fc 57bc 2c96 0abe
00000330: 9c91 3d3d a651 05be b232 dc3d 5431 e53c
00000340: 288b 593e ec90 a4be 5bf2 6d3d aab0 f33d
00000350: b44b 243e 1201 2f3d 0977 a33e 2883 a13d
00000360: 67b6 f8be 628d d6be 2c02 fbbc 795d 88be
00000370: 714e dfbb 143d 43be bb4d 68bd 8b60 da3d
00000380: 58b4 db3d 046a af3d a1ea 613c 107f a33e
00000390: edaa d5bd 3998 3fbe 2119 e0bc 5dec 58be
000003a0: 6b7b 133e d34f 24be 8655 2f3d 7eff b1be
000003b0: fdd4 b0be 5212 1e3e 4aa8 e63c 95ba 8cbe
000003c0: 6c66 05be 7830 cb3e e9c7 163c 5cc0 0abe
000003d0: b70e 6dbe 1c95 96be ead2 143e 27fc cb3e
000003e0: 3755 46bf d9a6 8e3e 0366 50be 3379 683e
000003f0: 0ca8 84be 37e5 403d 1d71 443e 25e3 ad3e

recommended/embedding/embeddings f4 [300, 50]
0.052168403 0.06281842 0.0038389082 0.081334695 -0.021621186 0.03374637 -0.09945462 -0.010501021
0.03896315 -0.024853466 -0.030755164 0.028323116 0.03922483 0.042107847 -0.07743286 -0.020116342
-0.015043041 -0.01190224 -0.04211965 0.030921744 -0.10222157 0.032881647 0.017974503 0.09006433
0.012951346 0.008682267 -0.03380439 -0.0024218347 -0.08221987 -0.048917055 -0.045036323 0.114413455
0.02046504 0.007705095 0.036600433 -0.06947853 -0.0540616 -0.03114211 0.057355743 -0.05744244
-0.015299908 0.14238124 -0.0011733527 0.13134935 0.008359524 -0.12154519 -0.06004238 -0.026214302
-0.0016223708 -0.019021947 0.07721301 0.08518541 -0.0108637605 0.049479708 0.011243418 -0.11170238
0.04144932 -0.048784122 0.04944599 -0.06553321 -0.0069849635 -0.021262074 0.028648848 0.016762987
-0.03482767 0.05225874 -0.053309802 0.07858885 0.059014227 0.014962923 -0.076598816 0.05053843
0.11114427 0.06264219 0.062237613 0.0043299305 -0.0028359096 0.12023141 -0.18310043 0.06733249
0.031117488 -0.06727569 0.027120322 -0.05792495 -0.019937906 -0.056971084 -0.044138286 -0.10119383
-0.01703697 -0.022600384 -0.09774332 -0.01905998 -0.030294145 0.09059821 -0.08086753 0.012647899
-0.19771133 0.1388643 0.16849457 0.028185239 -0.06366868 0.009982144 0.022004677 0.008132207
-0.011364638 -0.022670234 0.05310153 -0.047390077 0.100130685 0.13100274 0.003233983 0.013187822
-0.021564798 -0.054105792 0.12868614 -0.066907376 -0.030863572 0.0147901075 0.02861082 -0.031401776
-0.10799237 0.0002512277 -0.020576332 -0.0075789317 -0.09939589 -0.011073889 -0.09301013 -0.0911243
0.039085373 0.0018072677 0.09040485 -0.050077133 -0.019575138 0.05582199 -0.036003754 -0.030082587
-0.028827619 -0.011808677 -0.09445421 -0.06410677 0.009054909 -0.036928523 0.023362484 -0.016676163
0.0122941 0.01120362 0.06335482 -0.048875578 0.039993986 -0.06724099 -0.027238877 0.009217938
0.111554176 0.056191824 -0.037490677 0.07363055 0.004188075 -0.09179684 0.03380757 0.062479403
-0.02472839 0.0062035825 0.09676917 -0.21063176 -0.068097614 -0.020673674 0.080794066 0.036306713
0.08986382 0.052714776 0.04618789 -0.024622492 0.07688305 0.09404567 0.06982283 -0.026984759
-0.08600901 -0.07591611 0.039713483 -0.11517268 0.035951212 -0.003334685 0.05796053 0.07728262
-0.07650509 0.021039397 0.0029593445 0.011316249 -0.043177366 0.015517344 -0.101773575 -0.12681685
-0.07492706 -0.09355292 -0.005796462 -0.110941894 -0.013977698 0.09993476 -0.07548428 0.10536686
0.106019534 -0.026719375 -0.013765869 -0.041172676 0.06837757 -0.13238184 -0.08112698 -0.03427047
0.072167985 -0.06589079 0.038067758 -0.01787068 -0.003245953 -0.028431062 0.05461463 -0.085108295
0.010586862 -0.06500625 0.115724295 -0.03540662 0.08767496 -0.0367381 0.05279297 0.047214385
0.11204323 0.067496635 -0.042755447 0.013063956 -0.028102592 -0.060799435 0.10916145 0.028222734
-0.09909138 -0.20982751 -0.015782477 -0.043006644 0.017926628 0.07505187 -0.094958544 0.06798357
-0.032374706 -0.0016534099 0.06893306 0.08352005 0.00741631 0.0006582917 0.06656941 0.033412542
0.019519746 0.020135699 0.028261928 -0.10582231 -0.007857822 -0.039894857 0.044493582 0.010601814
00000000: 89ae 553d f2a6 803d 3196 7b3b ce92 a63d
00000010: ea1e b1bc a239 0a3d ddae cbbd 790c 2cbc
00000020: d397 1f3d 7f99 cbbc 41f2 fbbc e105 e83c
00000030: 37aa 203d 4779 2c3d 1f95 9ebd 07cb a4bc
00000040: 1677 76bc 9d01 43bc a785 2cbd 994f fd3c
00000050: 8b59 d1bd e8ae 063d 443f 933c a673 b83d
00000060: e231 543c 1140 0e3c 7976 0abd a5b7 1ebb
00000070: e462 a8bd 405d 48bd 0278 38bd 9a51 ea3d
00000080: 4da6 a73c 067b fc3b 56ea 153d c24a 8ebd
00000090: b26f 5dbd bd1d ffbc dbed 6a3d c448 6bbd
000000a0: 77ac 7abc 63cc 113e 2fcb 99ba 7280 063e
000000b0: 63f6 083c afec f8bd 00ef 75bd 60bf d6bc
000000c0: bba5 d4ba ead3 9bbc db21 9e3d b075 ae3d
000000d0: eafd 31bc 3cab 4a3d 5036 383c 38c4 e4bd
000000e0: c3c6 293d dcd1 47bd e187 4a3d 4736 86bd
000000f0: 1fe2 e4bb cd2d aebc fdb0 ea3c 8852 893c
00000100: 75a7 0ebd 430d 563d 615b 5abd 31f3 a03d
00000110: e7b8 713d 0c27 753c d7df 9cbd 6301 4f3d
00000120: 9b9f e33d 8c4a 803d deec 7e3d 17e2 8d3b
00000130: abda 39bb e33b f63d ae7e 3bbe 9ee5 893d
00000140: 1aea fe3c d6c7 89bd 702b de3c b642 6dbd
00000150: d254 a3bc 835a 69bd 59ca 34bd b63e cfbd
00000160: 1e91 8bbc 7124 b9bc a62d c8bd ad23 9cbc
00000170: 6d2b f8bc 8e8b b93d e09d a5bd 2239 4f3c
00000180: d774 4abe 7132 0e3e d789 2c3e bbe4 e63c
00000190: ba64 82bd 268c 233c 2743 b43c f33c 053c
000001a0: bf32 3abc edb6 b9bc fd80 593d 191c 42bd
000001b0: 5111 cd3d 9525 063e 3bf1 533b bc11 583c
000001c0: a9a8 b0bc 099e 5dbd 4dc6 033e bc06 89bd
000001d0: 9ad5 fcbc 3552 723c 3d61 ea3c 269f 00bd
000001e0: 1b2b ddbd 36b7 8339 b28f a8bc b058 f8bb
000001f0: 1390 cbbd 426f 35bc 187c bebd 619f babd
00000200: fc17 203d d7e1 ec3a 2e26 b93d ae1d 4dbd
00000210: 0a5c a0bc 99a5 643d ac78 13bd c26f f6bc
00000220: e627 ecbc 2e79 41bc 3571 c1bd 694a 83bd
00000230: 0b5b 143c 5d42 17bd ae62 bf3c 739c 88bc
00000240: 316d 493c 638f 373c 2cc0 813d c231 48bd
00000250: bcd0 233d a5b5 89bd 1124 dfbc d606 173c
00000260: 8476 e43d 6629 663d d38f 19bd 9dcb 963d
00000270: 1f3c 893b fbff bbbd ce79 0a3d 67ea 7f3d
00000280: 3193 cabc 6c47 cb3b ea2e c63d daaf 57be
00000290: c376 8bbd d65b a9bc 5c77 a53d 59b6 143d
000002a0: 860a b83d 73eb 573d 832f 3d3d 1cb5 c9bc
000002b0: dc74 9d3d 049b c03d 46ff 8e3d 240f ddbc
000002c0: 7e25 b0bd e879 9bbd 9baa 223d a7df ebbd
000002d0: 9441 133d bb8a 5abb 0568 6d3d 5a46 9e3d
000002e0: b3ae 9cbd d05a ac3c 90f1 413b ca67 393c
000002f0: c0da 30bd 753c 7e3c aa6e d0bd 47dc 01be
00000300: 5c73 99bd ac98 bfbd 3ff0 bdbb 8135 e3bd
00000310: b702 65bc 98aa cc3d 8197 9abd 95ca d73d
00000320: c520 d93d 97e2 dabc 3d8a 61bc aea4 28bd
00000330: 8a09 8c3d 1b8f 07be e725 a6bd 315f 0cbd
00000340: cfcc 933d c0f1 86bd f0ec 1b3d 8865 92bc
00000350: 0eba 54bb 42e8 e8bc 97b3 5f3d 424d aebd
00000360: 8574 2d3c ff21 85bd dc00 ed3d 8806 11bd
00000370: ee8e b33d b17a 16bd 713d 583d df63 413d
00000380: ec76 e53d ad3b 8a3d 5620 2fbd 340a 563c
00000390: 6837 e6bc d408 79bd 0a90 df3d 5d33 e73c
000003a0: 6cf0 cabd 06dd 56be 414a 81bc bc27 30bd
000003b0: ddda 923c cbb4 993d a079 c2bd f83a 8b3d
000003c0: 579b 04bd 3bb7 d8ba c72c 8d3d 8f0c ab3d
000003d0: 8404 f33b 3591 2c3a 8b55 883d 97db 083d
000003e0: e0e7 9f3c 9ff3 a43c 8f85 e73c 5eb9 d8bd
000003f0: 18be 00bc ca68 23bd e73e 363d 3bb3 2d3c
