ML/model/tiflite_model/model_kuliner_bali.tflite (tflite, 76572 bytes, 4 tensors)

recommended_1/embedding_7/embeddings f4 [49, 1]
-0.14157405 0.08241848 -0.1351128 0.03076432 0.013963505 -0.07410077 -0.20326231 0.11247248
-0.020773327 -0.0017577889 0.004476984 -0.010132699 0.17912279 0.086580895 -0.18631028 0.013649561
-0.15547527 -0.011444528 0.13750462 -0.07706708 -0.027647268 -0.014794696 -0.050069533 0.22752146
-0.08040665 0.27778655 0.038910512 -0.10071687 -0.014394461 0.097186215 0.03310099 0.094470985
0.056139275 0.13364513 -0.14656757 0.08668871 -0.21775287 0.11829145 -0.07977572 0.11353211
0.008547755 0.07236106 -0.008991683 0.0023247683 -0.117549285 -0.06769894 0.09083372 0.0853829
-0.016658507
00000000: caf8 10be 05cb a83d 035b 0abe 7505 fc3c
00000010: 2fc7 643c 25c2 97bd ff23 50be f957 e63d
00000020: d32c aabc 9c65 e6ba aab3 923b 9f03 26bc
00000030: f76b 373e 5351 b13d 1fc8 3ebe 69a2 5f3c
00000040: e934 1fbe d481 3bbc 03ce 0c3e 58d5 9dbd
00000050: 867c e2bc 7465 72bc b615 4dbd 63fb 683e
00000060: 3eac a4bd 0a3a 8e3e a160 1f3d a544 cebd
00000070: bfd6 6bbc 9109 c73d e794 073d 017a c13d
00000080: 4cf2 653d 45da 083e cf15 16be da89 b13d
00000090: 9cfa 5ebe ca42 f23d 7461 a3bd 8683 e83d
000000a0: e20b 0c3c 0932 943d da51 13bc 245b 183b
000000b0: aebd f0bd bea5 8abd 0807 ba3d 3bdd ae3d
000000c0: 6c77 88bc

recommended_1/embedding_6/embeddings f4 [49, 50]
-0.025242219 0.14871186 -0.12953322 -0.0028661871 -0.21063176 0.096496984 0.029443054 -0.15115364
0.092445485 0.0068494407 0.18836085 -0.010071949 0.08074621 -0.06835522 0.007883052 -0.15088296
-0.33288485 0.19000705 -0.05641166 0.17042716 -0.08982983 0.06429641 -0.07568696 0.13971889
-0.14217094 -0.103237115 0.09867506 -0.037332885 -0.1355617 -0.017334897 -0.062898114 -0.16798364
-0.21787956 -0.013294502 -0.035444036 0.008025311 0.12167607 0.20110093 0.20616695 0.027255232
-0.13090852 -0.07110347 -0.16120112 -0.18831176 0.1887136 -0.14865126 0.0035025636 0.04109431
0.08927609 -0.15052874 -0.14030091 0.19128737 0.059403386 0.198582 0.21741575 -0.13683222
0.1908461 -0.093804196 0.14789715 -0.14193112 -0.09788468 -0.06953677 0.15212524 -0.14937118
-0.24716228 0.072433226 0.17194358 -0.13262583 0.18484215 -0.06941857 -0.21657221 0.058150113
-0.031659245 -0.011776634 0.025261793 -0.052937865 0.111935966 0.044084918 -0.06445595 -0.16940016
0.024626441 -0.014370227 -0.29086682 0.13561006 -0.17681648 0.076316014 0.042569302 0.08707488
0.10224056 0.03362088 0.08914324 -0.079647854 -0.115624145 -0.17422037 -0.20878786 -0.17620061
0.04499415 0.15935269 -0.16993955 -0.00379825 0.044108033 0.08906076 0.17007317 0.16823027
-0.026732374 -0.11981097 0.03404557 -0.00846204 0.114323445 -0.08155324 0.20977242 0.13395497
0.17800798 0.09301377 0.120239176 -0.23654099 0.012228273 0.052677922 0.18338239 0.10508793
-0.14529866 -0.1538515 -0.053679455 0.013007898 -0.024865894 0.050054833 -0.08862939 -0.1243179
0.03215243 -0.020586412 0.016925653 -0.1350017 -0.0605563 0.056857683 -0.061093204 -0.14772385
-0.040052984 -0.01787638 -0.057950128 0.09458546 0.15306534 0.15785865 0.084358476 0.1611883
0.04619597 -0.02422233 -0.045753755 0.101657495 -0.12571688 -0.017257234 -0.03613782 -0.14915098
0.014275402 0.08389924 -0.19569139 0.07904821 0.027182579 -0.19533743 0.062578775 -0.14955199
0.15343733 0.0017844636 -0.22328271 -0.0796056 -0.012360178 0.0064523914 0.16155753 -0.0075203483
-0.23189421 -0.031579167 -0.12887089 -0.059471905 -0.038462024 -0.24724409 0.011218492 -0.057039738
0.19558023 -0.038126945 -0.090711355 0.13286828 -0.062036846 0.15812388 0.09556614 -0.22414857
-0.26754707 -0.28960237 0.16139212 0.07876563 -0.0368593 -0.16768974 0.11812985 0.00034644525
-0.22008929 -0.16196604 0.01624028 0.11020592 0.19981761 -0.08339568 -0.053602695 0.04250739
-0.16919631 -0.05734128 -0.27812248 -0.19421177 0.17639168 -0.20302635 -0.026517503 0.10481489
-0.17073786 -0.06097822 -0.18592943 -0.021030433 -0.17849956 0.017160675 0.2839951 0.07914491
0.03036548 -0.073854975 0.022089602 -0.072373964 0.027009115 -0.20500189 0.022328012 0.030448264
0.06980158 0.22520334 0.059896193 0.11342578 -0.073831454 0.19676001 -0.066231914 0.0031362248
-0.050193936 0.24619032 -0.069381654 -0.13477872 -0.04256974 -0.10274835 0.06861496 0.052473247
-0.016988622 -0.1370935 -0.2034211 -0.17167948 0.015166768 -0.0710415 -0.13955419 -0.16594435
-0.0897782 0.093133785 0.13457352 0.2183708 0.103308536 0.028961504 0.020342944 0.12428728
00000000: c5c8 cebc ec47 183e 5ba4 04be a4d6 3bbb
00000010: daaf 57be 36a0 c53d 8f32 f13c 05c8 1abe
00000020: 0f54 bd3d 4671 e03b abe1 403e d104 25bc
00000030: 455e a53d d2fd 8bbd eb27 013c 1081 1abe
00000040: e26f aabe 3591 423e ea0f 67bd 7584 2e3e
00000050: b4f8 b7bd d6ad 833d c401 9bbd 7812 0f3e
00000060: 4295 11be fb6d d3bd 2616 ca3d 5eea 18bd
00000070: b0d0 0abe ea01 8ebc bad0 80bd e703 2cbe
00000080: d21b 5fbe 2fd1 59bc c42d 11bd 987c 033c
00000090: 4e31 f93d 67ed 4d3e 6e1d 533e 5d46 df3c
000000a0: e20c 06be b29e 91bd e811 25be ccd4 40be
000000b0: 233e 413e 0938 18be 448b 653b 8252 283d
000000c0: 62d6 b63d 3524 1abe 0bab 0fbe d6e0 433e
000000d0: f750 733d 1459 4b3e 3ca2 5e3e bf1d 0cbe
000000e0: 296d 433e 6a1c c0bd 5a72 173e 6456 11be
000000f0: c377 c8bd 4b69 8ebd b8c6 1b3e c2f4 18be
00000100: 1c18 7dbe df57 943d fa11 303e 11cf 07be
00000110: 4347 3d3e 532b 8ebd 1bc5 5dbe d02e 6e3d
00000120: 20ad 01bd c8f2 40bc d2f1 ce3c 60d5 58bd
00000130: af3e e53d 6392 343d 7b01 84bd 3c77 2dbe
00000140: 64bd c93c 1a71 6bbc 7fec 94be 5ddd 0a3e
00000150: 610f 35be 924b 9c3d 265d 2e3d 5154 b23d
00000160: 8063 d13d 0cb6 093d bb90 b63d 6a1e a3bd
00000170: 5acc ecbd d366 32be 7ccc 55be ef6d 34be
00000180: c94b 383d 5a2d 233e a204 2ebe 10ec 78bb
00000190: a0aa 343d 7d65 b63d a927 2e3e 8e44 2c3e
000001a0: dafd dabc 745f f5bd 5e73 0b3d 5ea4 0abc
000001b0: 6922 ea3d 6305 a7bd 95ce 563e 7e2b 093e
000001c0: b947 363e 017e be3d f53f f63d cd37 72be
000001d0: 1859 483c cec4 573d 98c8 3b3e 5738 d73d
000001e0: 2cc9 14be 3f8b 1dbe fdde 5bbd 141f 553c
000001f0: 8fb3 cbbc 4c06 4d3d 5383 b5bd 629a febd
00000200: 44b2 033d d6a4 a8bc aba7 8a3c e33d 0abe
00000210: e209 78bd 9ae3 683d de3c 7abd ec44 17be
00000220: 990e 24bd 7c71 92bc 1d5d 6dbd 06b6 c13d
00000230: 29bd 1c3e b3a5 213e 23c4 ac3d 8c0e 253e
00000240: fc37 3d3d e86d c6bc 4a68 3bbd ce31 d03d
00000250: edbb 00be 0b5f 8dbc 4005 14bd 09bb 18be
00000260: 60e3 693c 5dd3 ab3d 5363 48be 07e4 a13d
00000270: 00ae de3c 8906 48be 4d29 803d 2824 19be
00000280: ad1e 1d3e aae4 e93a 39a4 64be 4308 a3bd
00000290: 5882 4abc 956e d33b 566f 253e 416d f6bb
000002a0: ad75 6dbe 2859 01bd bbf6 03be d098 73bd
000002b0: 5b8a 1dbd 8e2d 7dbe c4cd 373c 80a2 69bd
000002c0: 2f46 483e 002b 1cbd e0c6 b9bd 9f0e 083e
000002d0: 591a 7ebd 3aeb 213e 2eb8 c33d 3487 65be
000002e0: eefb 88be c346 94be fa43 253e e04f a13d
000002f0: c7f9 16bd dcb6 2bbe 10ee f13d 18a3 b539
00000300: 165f 61be 6dda 25be 560a 853c a4b3 e13d
00000310: fd9c 4c3e 5bcb aabd 808e 5bbd 3b1c 2e3d
00000320: cc41 2dbe b1de 6abd 1266 8ebe 73df 46be
00000330: 05a0 343e 24e6 4fbe 3c3b d9bc 30a9 d63d
00000340: e8d5 2ebe 4cc4 79bd 4964 3ebe 0448 acbc
00000350: 97c8 36be 8b94 8c3c ce67 913e ba16 a23d
00000360: 07c1 f83c 4741 97bd 41f5 b43c cd38 94bd
00000370: 3842 dd3c 04ec 51be 3ce9 b63c a36e f93c
00000380: 21f4 8e3d b49b 663e b655 753d c64b e83d
00000390: f234 97bd 757b 493e 99a4 87bd 1f89 4d3b
000003a0: 2898 4dbd 5119 7c3e f817 8ebd 6f03 0abe
000003b0: 9c5d 2ebd ba6d d2bd 0086 8c3d 30ee 563d
000003c0: b92b 8bbc 3d62 0cbe 9f4d 50be bfcc 2fbe
000003d0: 097e 783c 357e 91bd 4be7 0ebe 51ed 29be
000003e0: a2dd b7bd edbc be3d a4cd 093e 989c 5f3e
000003f0: 6d93 d33d ad40 ed3c 3fa6 a63c 548a fe3d

recommended_1/embedding_5/embeddings f4 [300, 1]
0.19326152 0.32565436 0.08243876 0.3077275 0.29629183 0.4368734 0.7963046 0.30636367
0.7271151 0.5918587 0.17443545 0.7047474 0.1880667 0.5847924 0.34266534 0.31289634
0.41681802 0.7318811 0.52935016 0.038192604 0.28005084 0.18519351 0.5036444 0.26341683
0.65642965 0.7525219 0.21203282 0.8730859 0.41693833 0.13797289 0.15776029 0.36612394
0.14852688 0.49519026 0.024227353 0.17896664 0.50232494 0.6118495 0.59531796 0.40057218
0.046484713 0.21989869 0.3818963 0.4865495 0.531779 0.5558902 -0.3230235 -0.0984985
0.07369784 -0.04046817 -0.12522739 0.10011506 -0.18554461 -0.1239194 -0.041434612 -0.1327048
-0.5375511 -0.34664258 -0.049721655 -0.06742372 0.32537207 0.17234373 -0.34779358 -0.1479917
0.015385752 -0.43978235 -0.33367658 0.21525505 -0.42106953 0.41824856 -0.038082104 -0.16120054
-0.49099946 -0.2942269 0.1634923 -0.17560598 0.014001056 0.47030655 -0.20089021 -0.481343
-0.58039856 0.024051184 -0.10958451 0.17372195 -0.12754369 -0.16821495 -0.06419488 -0.8506933
-0.038712934 -0.5741614 -0.02823083 0.26052612 -0.06558495 -0.004994931 0.13996556 -0.3105337
0.37790805 -0.050044008 0.122645505 -0.34319735 -0.24119192 -0.18444318 -0.14729132 -0.07683963
0.32738012 0.07002655 -0.19889681 0.2836735 -0.088632345 -0.2621732 0.085213564 -0.22041807
0.18855873 0.14383397 0.41518423 -0.4900149 0.08542496 0.1119365 -0.43746275 0.019029742
-0.01755074 -0.03538751 -0.7544601 -0.13522191 -0.18403879 0.21623807 0.006358047 -0.14364302
-0.051121444 0.27478805 -0.31617695 -0.097526595 -0.10958407 0.013580187 -0.19695035 -0.5226613
0.33255878 -0.13611475 0.02431651 0.11088623 0.22834171 -0.25576746 0.2068857 -0.011326705
-0.160965 -0.40755764 -0.10070133 -0.23794575 -0.014558561 0.5372806 0.17722681 0.02565612
-0.3347067 0.52690077 -0.45471644 0.24042538 -0.10990885 0.050449148 -0.18927178 -0.066683516
0.039228186 -0.0012693722 0.17898056 -0.13055387 0.20041233 0.0103814555 0.05304395 0.3004298
0.045746796 -0.20858249 -0.17221132 -0.0339733 -0.29434836 -0.20056964 0.056558218 -0.03774546
0.19165213 -0.06985147 -0.12014585 -0.33106396 0.028152518 -0.27191395 -0.14246957 -0.07502027
-0.21114698 0.07888932 -0.05598449 -0.6606051 0.33845517 -0.1285347 -0.18879575 -0.16215044
-0.17135449 -0.081841014 -0.16617952 -0.13043705 0.26556477 -0.113633364 -0.14267021 -0.18895017
0.10099391 0.2617037 -0.06936282 -0.11601562 0.0757602 -0.13345335 0.1457681 0.033275675
0.21752249 -0.2895511 0.044962727 0.1433172 0.17617735 0.067428954 0.3395143 0.043236297
-0.4850083 -0.44204926 -0.028892022 -0.26901874 -0.009708603 -0.1886094 -0.049872126 0.10763567
0.0806534 0.111603886 0.002709134 0.32056695 -0.085722804 -0.17702457 -0.008313432 -0.20917441
0.17296837 -0.15247446 0.027103826 -0.38549623 -0.2931107 0.15927334 0.039619196 -0.25332826
-0.13988754 0.42193404 0.01155369 -0.12825164 -0.21701409 -0.29558888 0.14424452 0.40644002
-0.7443607 0.28434783 -0.24505033 0.21135524 -0.26851237 0.07813186 0.19094156 0.33471105
00000000: 59e6 453e 2bbc a63e a7d5 a83d 758e 9d3e
00000010: 90b3 973e dfad df3e 9eda 4b3f b3db 9c3e
00000020: 3724 3a3f 0d84 173f 359f 323e 536a 343f
00000030: 8f94 403e f4b4 153f d571 af3e f333 a03e
00000040: 2c69 d53e 8f5c 3b3f 7e83 073f d96f 1c3d
00000050: d362 8f3e 5ea3 3d3e d7ee 003f 92de 863e
00000060: c60b 283f 46a5 403f 221f 593e 8f82 5f3f
00000070: f178 d53e c448 0d3e ea8b 213e 9974 bb3e
00000080: 6e17 183e 9489 fd3e 7178 c63c 0843 373e
00000090: 5e98 003f 2ba2 1c3f c266 183f cc17 cd3e
000000a0: c166 3e3d 1f2d 613e e987 c33e 041d f93e
000000b0: ab22 083f d24e 0e3f 5663 a5be 95b9 c9bd
000000c0: e5ee 963d f4c1 25bd 9c3b 00be 2009 cd3d
000000d0: 68ff 3dbe 74c9 fdbd 57b7 29bd c4e3 07be
000000e0: f39c 09bf 237b b1be efa8 4bbd 7315 8abd
000000f0: 2b97 a63e e07a 303e 0012 b2be 238b 17be
00000100: 8514 7c3c 272b e1be a8d7 aabe d26b 5c3e
00000110: 6d96 d7be ad24 d63e fbfb 1bbd c111 25be
00000120: 4864 fbbe e9a4 96be 876a 273e 0ed2 33be
00000130: af64 653c 05cc f03e 2ab6 4dbe 9772 f6be
00000140: 0095 14bf fd06 c53c d86d e0bd 2be4 313e
00000150: d09a 02be 8a40 2cbe 9b78 83bd 09c7 59bf
00000160: 7491 1ebd 3efc 12bf 5744 e7bc ae63 853e
00000170: 6751 86bd 85ac a3bb 2253 0f3e 46fe 9ebe
00000180: 2a7d c13e f2fa 4cbd 912d fb3d 90b7 afbe
00000190: 04fb 76be acde 3cbe 89d3 16be 195e 9dbd
000001a0: 5e9e a73e 146a 8f3d 9bab 4bbe a73d 913e
000001b0: e084 b5bd 913b 86be 7384 ae3d 46b5 61be
000001c0: 8a15 413e 3649 133e 0793 d43e 3ce3 fabe
000001d0: 48f3 ae3d f73e e53d 1efb dfbe 43e4 9b3c
000001e0: 92c6 8fbc 7ef2 10bd 4c24 41bf 9d77 0abe
000001f0: aa74 3cbe 836d 5d3e 2a57 d03b 2817 13be
00000200: b864 51bd 05b1 8c3e f2e1 a1be 06bc c7bd
00000210: 9d6d e0bd 6f7f 5e3c 5aad 49be 22cd 05bf
00000220: 2545 aa3e aa61 0bbe 6b33 c73c 5218 e33d
00000230: 69d2 693e f4f3 82be d8d9 533e a593 39bc
00000240: 02d4 24be 65ab d0be 803c cebd 0da8 73be
00000250: 0887 6ebc 398b 093f f27a 353e c92c d23c
00000260: ad5e abbe f8e2 063f 98d0 e8be 1232 763e
00000270: e417 e1bd c4a3 4e3d 76d0 41be 5e91 88bd
00000280: bcad 203d 1061 a6ba ae46 373e eaaf 05be
00000290: e438 4d3e fb16 2a3c 9d44 593d efd1 993e
000002a0: fe60 3b3d a696 55be 2a58 30be 9627 0bbd
000002b0: d4b4 96be 2162 4dbe 97a9 673d fc9a 1abd
000002c0: 7540 443e 4a0e 8fbd 070f f6bd 3781 a9be
000002d0: 1ca0 e63c 4e38 8bbe 8be3 11be 3aa4 99bd
000002e0: ea36 58be b990 a13d fe4f 65bd 6a1d 29bf
000002f0: ff49 ad3e 9a9e 03be ac53 41be c40a 26be
00000300: 8d77 2fbe 439c a7bd f72a 2abe 4a91 05be
00000310: 1bf8 873e 9cb8 e8bd 2418 12be 277c 41be
00000320: e5d5 ce3d 07fe 853e 180e 8ebd 9999 edbd
00000330: 2a28 9b3d ffa7 08be 3c44 153e 134c 083d
00000340: 37be 5e3e 0b40 94be d62a 383d bec1 123e
00000350: d667 343e 3118 8a3d d1d4 ad3e 8b18 313d
00000360: 0253 f8be 4854 e2be f6ae ecbc d3bc 89be
00000370: d510 1fbc d322 41be b746 4cbd 1770 dc3d
00000380: 9c2d a53d 9490 e43d ba8b 313b 5a21 a43e
00000390: 708f afbd ee45 35be 1035 08bc d131 56be
000003a0: 9f1e 313e 4422 1cbe d808 de3c c35f c5be
000003b0: 9b12 96be 8d18 233e bd47 223d 3eb4 81be
000003c0: ae3e 0fbe bd07 d83e b04b 3d3c 6654 03be
000003d0: f138 5ebe 6d57 97be d6b4 133e e818 d03e
000003e0: 6c8e 3ebf 0a96 913e 79ee 7abe 826d 583e
000003f0: 747a 89be 9903 a03d 2f86 433e 3f5f ab3e

recommended_1/embedding_4/embeddings f4 [300, 50]
0.06594329 0.0638218 0.024657652 0.07030057 0.054100327 0.08301497 -0.04245376 0.010471045
-0.0143286055 0.0048290864 0.015810046 0.090100504 -0.06718456 0.06884847 -0.11005009 -0.059256084
-0.06476676 -0.040004034 -0.13232927 -0.06025122 -0.14363189 0.017596945 0.06907678 -0.00047462992
-0.04042456 -0.017913532 0.032616366 -0.043386895 -0.04186175 -0.016288508 -0.057024106 -0.055195596
0.07757818 0.06501391 -0.11113266 0.05672913 -0.11177954 0.097177505 -0.15875685 0.068065405
0.09678373 0.07664079 -0.043839715 0.0646549 0.08721138 0.09531072 -0.015281239 0.12959428
-0.052851256 0.051995154 0.045090526 0.051896315 0.14014308 0.034648247 -0.009294718 -0.048938274
0.09268769 -0.0999267 0.11477987 -0.020245956 -0.10063155 -0.03017167 0.01237382 0.041073773
0.16206247 -0.0051513133 0.06386571 0.07031174 -0.041590374 -0.010150579 0.042455893 0.036376543
-0.06577348 -0.12989952 0.00613057 0.15166882 -0.045780938 -0.1718218 0.0048247715 0.024915311
0.034391508 0.1502523 -0.11534691 -0.080652416 0.04349248 0.051876914 -0.014929413 0.060091875
0.1345183 0.07598354 0.036370385 -0.12197537 -0.005521485 -0.009383714 -0.0022400122 0.113697894
0.12863332 0.049566783 -0.11097648 0.0987245 -0.05142218 -0.003056284 0.0004959319 0.045772653
-0.017766751 0.060729697 0.008353129 0.09265517 0.016983546 0.0869735 -0.065942384 -0.025907308
-0.082674295 0.0039051692 -0.031384375 -0.036860358 0.060307696 0.064406134 0.09652407 0.006046888
0.021532102 -0.015210986 -0.00723809 0.05104657 -0.044401202 0.03681817 0.025256889 0.01334047
0.008386719 0.15834978 -0.049011234 -0.0028836895 -0.019081352 0.05719626 -0.018124 -0.018504426
0.028858364 0.12252117 0.00072372897 -0.030463561 0.004095267 -0.023159023 0.041830804 0.018516963
0.027670208 0.12108385 -0.01819241 -0.043638524 0.012439529 0.0349033 -0.08536582 -0.085497595
0.00974196 0.04978191 0.078722976 -0.018982945 0.053607937 0.018773708 0.13665402 0.12284643
-0.0075814044 0.02634657 0.012706786 -0.04068634 0.07418871 -0.058079462 -0.058321126 -0.11116491
-0.08577324 0.10158927 -0.07311736 0.034878638 0.0027800284 0.022351757 -0.005048403 0.072420366
0.10326978 -0.022321941 -0.003143238 -0.03071344 0.1118862 0.068018794 0.089378566 0.034946576
-0.021642331 0.109191336 0.08110631 0.045529142 0.056869373 -0.064951465 -0.12072997 -0.015115986
0.04955284 0.018448433 -0.10743064 0.17313021 0.028861474 0.012728301 0.119675614 0.09549232
-0.05434651 -0.06535563 -0.0066486206 0.13350062 0.031911716 -0.067340165 -0.024807597 0.0052198437
-0.0516077 -0.03719537 -0.018510437 -0.15303218 0.051107615 0.008515687 -0.07968372 0.039377764
0.12670796 -0.057733208 -0.040037822 -0.021077164 0.06966095 0.024061607 -0.021967234 -0.043405842
0.0044597136 0.05930262 -0.05904133 0.0048253806 -0.0061947512 0.043382797 -0.03517885 -0.075915396
0.027718889 -0.067580365 -0.04934176 0.00049069675 -0.07452834 0.1313221 -0.027551798 0.08159737
-0.10007758 -0.08189748 -0.00027251898 -0.039848767 0.020899361 0.06790654 -0.10846307 -0.047545582
-0.11790322 -0.011945852 0.00019501668 -0.04449219 -0.07407997 -0.109562375 0.09662376 -0.03426921
00000000: 470d 873d 01b5 823d d8fe c93c bff9 8f3d
00000010: 4e98 5d3d c103 aa3d fee3 2dbd bf8e 2b3c
00000020: 87c2 6abc 503d 9e3b 1284 813c 9d86 b83d
00000030: 0f98 89bd 6d00 8d3d f161 e1bd 82b6 72bd
00000040: 6fa4 84bd 45db 23bd 5381 07be fcc9 76bd
00000050: 3d14 13be 7827 903c 2078 8d3d c0d7 f8b9
00000060: 3994 25bd 66bf 92bc bd98 053d 75b6 31bd
00000070: 3a77 2bbd 7a6f 85bc 1c92 69bd c714 62bd
00000080: 4fe1 9e3d 0326 853d 8599 e3bd ce5c 683d
00000090: acec e4bd 0005 c73d 2891 22be e065 8b3d
000000a0: 8c36 c63d d9f5 9c3d 4691 33bd ca69 843d
000000b0: e19b b23d 4432 c33d 295e 7abc 5db4 043e
000000c0: 8f7a 58bd dff8 543d d8b0 383d 3b91 543d
000000d0: ab81 0f3e 52eb 0d3d df48 18bc 8073 48bd
000000e0: 0bd3 bd3d 5fa6 ccbd b511 eb3d d9da a5bc
000000f0: ea17 cebd 942a f7bc 90bb 4a3c f93c 283d
00000100: b4f3 253e 59cc a8bb 06cc 823d 9aff 8f3d
00000110: ab5a 2abd 9d4e 26bc 3be6 2d3d 92ff 143d
00000120: 3fb4 86bd 6104 05be f3e2 c83b 124f 1b3e
00000130: cb84 3bbd 0ef2 2fbe 1e19 9e3b 321b cc3c
00000140: 1cde 0c3d bddb 193e 003b ecbd 182d a5bd
00000150: 2c25 323d e37c 543d 7f9a 74bc e622 763d
00000160: 2abf 093e 429d 9b3d 1df9 143d 39ce f9bd
00000170: 93ed b4bb 26be 19bc 2bcd 12bb 71da e83d
00000180: 74b8 033e 8a06 4b3d a347 e3bd 1230 ca3d
00000190: 10a0 52bd f04b 48bb 6d01 023a 1b7c 3b3d
000001a0: 948b 91bc b4bf 783d 90db 083c fec1 bd3d
000001b0: 1421 8b3c 2a1f b23d cd0c 87bd 903b d4bc
000001c0: 2451 a9bd deed 7f3b e78c 00bd e3fa 16bd
000001d0: 3405 773d 5de7 833d 69ae c53d f924 c63b
000001e0: 1764 b03c 8037 79bc 802d edbb 3516 513d
000001f0: 09de 35bd a6ce 163d 89e7 ce3c fd91 5a3c
00000200: 7368 093c 7226 223e 01c0 48bd 48fc 3cbb
00000210: 7f50 9cbc a046 6a3d c878 94bc 9896 97bc
00000220: 6068 ec3c 61ec fa3d a1b8 3d3a b88e f9bc
00000230: 9731 863b feb7 bdbc c756 2b3d e3b0 973c
00000240: a2ac e23c cffa f73d 4008 95bc 4fbe 32bd
00000250: 2bcf 4b3c c3f6 0e3d 46d4 aebd 5d19 afbd
00000260: be9c 1f3c 1ee8 4b3d 8339 a13d 1f82 9bbc
00000270: ff93 5b3d 52cb 993c 08ef 0b3e e996 fb3d
00000280: 6e6d f8bb c3d4 d73c 2030 503c b8a6 26bd
00000290: 40f0 973d bbe4 6dbd 22e2 6ebd 6eaa e3bd
000002a0: e1a9 afbd 090e d03d 8ebe 95bd e7dc 0e3d
000002b0: 2331 363b 081b b73c 136d a5bb 2151 943d
000002c0: 1b7f d33d 81dc b6bc c8fe 4dbb c19a fbbc
000002d0: 9824 e53d 704d 8b3d 1c0c b73d 2424 0f3d
000002e0: 424b b1bc b59f df3d 111b a63d c47c 3a3d
000002f0: dcef 683d 4605 85bd 4641 f7bd 0aa9 77bc
00000300: ebf7 4a3d 2b21 973c 9804 dcbd 0c49 313e
00000310: e66e ec3c 5d8a 503c 7d18 f53d 7a91 c33d
00000320: 729a 5ebd 2cd9 85bd acdc d9bb 63b4 083e
00000330: dcb5 023d a4e9 89bd 4d39 cbbc 390b ab3b
00000340: 9862 53bd 2c5a 18bd 33a3 97bc 78b4 1cbe
00000350: 3856 513d 6185 0b3c 3831 a3bd 944a 213d
00000360: bbbf 013e a879 6cbd b3fe 23bd 04aa acbc
00000370: 66aa 8e3d d91c c53c a1f4 b3bc 53ca 31bd
00000380: ca22 923b 4ee7 723d 52d5 71bd 3a1e 9e3b
00000390: 57fd cabb 29b2 313d b317 10bd 8879 9bbd
000003a0: b912 e33c 9367 8abd 961a 4abd 1aa2 003a
000003b0: 50a2 98bd 4d79 063e 4fb4 e1bc 861c a73d
000003c0: 79f5 ccbd deb9 a7bd e1e0 8eb9 7638 23bd
000003d0: 2335 ab3c 9612 8b3d e321 debd 28bf 42bd
000003e0: 3e77 f1bd 89b8 43bc 647d 4c39 713d 36bd
000003f0: 3db7 97bd 3d62 e0bd aee2 c53d df5d 0cbd
