ML/model/tiflite_model/model_wisata_yokjakarta.tflite (tflite, 92336 bytes, 4 tensors)

recommender_net/embedding_3/embeddings f4 [126, 1]
00000000: 6e64 d5be 65df 0e3e 69ee 023c 76c6 6ebd
00000010: 77c3 62be f627 b83d 6f2b 8c3e a25b ae3d
00000020: 8975 c6be b441 9c3e 6a71 893e 10dd 59be
00000030: 24ff ea3e 533f 993e a87d 06bd 6f57 40bd
00000040: 5c2c 94be f806 cfbd 46ee 01bd fb61 13bf
00000050: 376e a9bd 75ee 483c 2e0e f3bd 3b5d 663e
00000060: 7d33 2bbe 3974 4ebc 9e54 f6bd b6f9 043f
00000070: 02e3 85bd df98 71be d2b6 623e 73ab 443d
00000080: 23e3 db3e 49a8 a5bd 9ee6 88be 1e24 e6bd
00000090: 3e15 263d 05ec 7a3e 464f 023d ecd8 c9be
000000a0: df71 933e 9dc4 e33c eb37 24ba 645c 0cbd
000000b0: ef7d 2c3c f282 3dbc fab1 c53d 824b 833e
000000c0: 2fed 2dbe c788 8d3e c86a 81bd f625 593e
000000d0: a75c 193c a2f2 2d3e b278 ee3e 5fe3 2d3c
000000e0: acbd 003d ccae f73d 9d6b 473e fa1b b2bd
000000f0: 6f3c 05be 03f0 4b3e fb23 28be 6d99 40bc
00000100: 9204 2fbd e081 06bd 9978 b3bd 60d3 a9be
00000110: ff38 75bc 46bd 363e f6f2 f83c 60e9 073e
00000120: 1389 cb3e ec5e 58be 5cde 88bd 5c6b 4d3e
00000130: e9a6 f73d 7ed7 12be d0d3 97be 8c26 b93e
00000140: b939 dcbd 2ec7 f7bc 20f2 103e f25a 25be
00000150: 4ae6 bb3d 4777 0d3d 1aaf 583d 990a 3f3e
00000160: 6c62 5abe c4c7 aabe 1200 eebd 6393 873e
00000170: e8e8 153d d9fe 593e ab6a 9ebd 913c 533d
00000180: fcf4 ebbe 5734 973d 70a5 903e 984d babe
00000190: 3b56 25be 8e47 f3bb bc33 9cbe a208 52be
000001a0: 360d 8a3e 36f7 66bd 715d afbd 0c9e 503c
000001b0: f5c6 29bc 0988 3b3e 0121 8fbd 4bf3 5d3e
000001c0: 3592 f4bd 207a 3abe aa20 b53d b883 123d
000001d0: fa83 2fbd 0cf7 3f3e 748a 46be c24d 2d3d
000001e0: 1c87 9e3c 692c 233d a00d 29be e71b 703e
000001f0: 51b1 e8be b198 c73d
-0.41678184 0.13952406 0.007991412 -0.058294736 -0.22144876 0.08991997 0.27376887 0.08513571
-0.38761547 0.30518878 0.2684434 -0.21275735 0.45897782 0.29931125 -0.03283468 -0.046958383
-0.28940094 -0.10108751 -0.031721376 -0.5757138 -0.08272975 0.012263884 -0.11867939 0.22496502
-0.1671886 -0.012600952 -0.12027858 0.5194353 -0.06537439 -0.23593472 0.22140053 0.04801507
0.4294673 -0.080887385 -0.26738447 -0.112373576 0.040547602 0.24504097 0.031813882 -0.3942331
0.28797814 0.027803713 -0.0006264436 -0.034267798 0.010528072 -0.011566864 0.09653087 0.25643545
-0.1698501 0.27643415 -0.06319195 0.21205887 0.009360469 0.16987088 0.46576458 0.0106132915
0.031430885 0.12093887 0.19474645 -0.08696742 -0.13011335 0.19915776 -0.16419975 -0.01175533
-0.042728968 -0.032838702 -0.087632366 -0.3316908 -0.014967202 0.1784564 0.03038929 0.13272619
0.39753017 -0.2112996 -0.06683037 0.20060486 0.120923825 -0.14340016 -0.29653788 0.3616222
-0.10753197 -0.030246343 0.14154863 -0.16147974 0.091747835 0.03453758 0.052901365 0.18656386
-0.21326607 -0.33355534 -0.11621107 0.26479635 0.03659907 0.21288623 -0.07735189 0.051571433
-0.46085346 0.0738303 0.2825122 -0.36387324 -0.16146176 -0.0074243015 -0.3050822 -0.20511106
0.26963204 -0.056388102 -0.085627444 0.012732994 -0.010362376 0.18313612 -0.06988717 0.2167484
-0.11941949 -0.1821065 0.08844121 0.035770148 -0.042850472 0.18746585 -0.19388753 0.042310484
0.019351535 0.039837275 -0.16509104 0.23448144 -0.45447782 0.097459204

recommender_net/embedding_2/embeddings f4 [126, 50]
00000000: d843 973d e809 f0bb cdce 353d 6a8a e7bd
00000010: 9d16 0dbe 548a 283d 9f06 b83d a52e 1ebe
00000020: e878 993d 611d 853e 2d02 febd 0462 c13c
00000030: 12cf 9bbd dd4f 8abd 33c2 05be 0a7b e6bd
00000040: 14c7 aa3d 8522 03be 52d4 abbd 18a1 943d
00000050: 2349 fb3d 9003 613e 58b6 403d 67c1 16be
00000060: 5f7d 8dbc e594 27be e23e a13d c65b 95bd
00000070: 84ea dd3d 7f8e c9bd af04 a43d 3f9d b0bd
00000080: 8542 b03d 8686 8e3d 7c64 2a3e c3ac 61be
00000090: 7b47 773d 4c1a 5c3c 03b5 6ebd bb5d c7bc
000000a0: 90a7 ddbd 279a 1fbd 905a 50bd 41c1 23be
000000b0: 1a27 62be 6b35 89bd fdc2 533d 4292 97bc
000000c0: d032 b23d 8112 f6bd 4ba0 843d 7635 04bd
000000d0: d0f8 743e 40fc 36be 9bf3 94bd 3461 22bd
000000e0: e4ac 273e 667e 2c3e c6c8 e1bd 2204 df3c
000000f0: dbc6 e03c 54bb 4abe 1b80 213c 7196 893c
00000100: 4114 2cbd 5cbd 69be 7475 253e 1d5a 233d
00000110: cb47 743c f165 883d 6682 073d 8682 d93d
00000120: 13e1 9e3d 1491 2c3e 51db 1fbe f603 d63d
00000130: e464 b0bd fcc9 6dbc 79c4 fd3c b0b8 3b3e
00000140: c48d 84bd 5dc2 cbbd 5150 d93d a328 c6bd
00000150: 8edc 513d 61fe febd 872d 07be adcc 423d
00000160: c937 db3d 2e2f 45bd 471f 7e3d 17c4 783d
00000170: 160b e6bc c42e 493e 1717 4bbd b546 c63d
00000180: a02d 753c 45e2 b03c 2806 313e 248c b5bd
00000190: f57f 37be 8202 f8bd 3e84 dc3d 7d14 243d
000001a0: 74b0 943d 78f7 28be 0eb7 56bd bcba 903c
000001b0: de4d 183c 1417 e53d 52fd 8abd c3e3 6a3d
000001c0: 24ac 11be 08c1 21be 75a1 9cbd d950 b33c
000001d0: e55c 06be 352e 94bc 3406 dd3d 4cc1 c23d
000001e0: 3e95 04be 6bc0 3e3e 1d38 ef3d 2419 b03d
000001f0: 93c5 323e 1078 903b 6bff d4bd 2a95 e9bd
00000200: b085 a9bd b70f fbbd 5dc8 f13d 9a39 cbbd
00000210: 674f 1bbd 8553 c83c e87b 9b3d 49a0 7d3d
00000220: 1a34 093d 95b0 393d bbf7 1fbd 8b64 813e
00000230: ad05 b9bd 8abc 90bd 01de 8ebd 747f 2bbe
00000240: c1d1 c1bd c530 c6bd 54ee 183c 5265 853d
00000250: 5ca7 ddbd 868a 52be 2f6e 67be d532 6dbd
00000260: 3475 0bbe b5ee bdbd dcd4 6cbe 00d6 c63d
00000270: c597 3e3e 4099 593d 62ce 833d 0c0f 01be
00000280: c262 b23d 1d5a cf3d 58d2 3dbe fbef 693e
00000290: a827 93bb 5c5c dcbd 183c b9bc 26a3 7cbd
000002a0: b7d1 8e3d c73d 4ebe aca5 1e3e ee98 f13d
000002b0: f653 1e3e eafa 673d f97c 0b3e c283 a03d
000002c0: 2497 833d 7b7b a33d f2a8 0ebe 8ff6 4cbe
000002d0: e174 3c3d 3b92 8dbc 129f edbd 76a9 d83d
000002e0: 35cf abbc 8291 f5bc 4663 dfbd 1490 1dbe
000002f0: b0cb 283e 6117 e13c 35b7 163d ef4e f7bd
00000300: a3f9 843d 8906 edbd cd6c 82bd 3e67 8b3c
00000310: 8630 e9bd dc80 c63c bb50 283e 3ba9 f43d
00000320: 125b 96bd cee9 243e dab8 17bd 0b69 183e
00000330: 727d 28bd f58a 34bd ae08 44be bc15 2c3e
00000340: 302c 1fbc 0c46 b83c 5032 023e 9d9e 9abd
00000350: 6811 14be 3302 ee3d 900b 87bd dac3 0f3e
00000360: d4c2 d8bd b315 2a3e ecb6 5bbd 0f67 06be
00000370: 6d71 42be 9558 9a3d 7ef2 573e 267e 64bc
00000380: 3d78 053d 48f7 013d fd8e 5b3d 496e 31be
00000390: c0a8 dfbd dc1e 0d3e 863d ce3c dd76 6c3d
000003a0: 50c4 833d 57ce 273d aecd 6e3d 80dc b8bd
000003b0: b527 05be 5a82 30be b4b6 6cbd 49fe 83bd
000003c0: 19c9 b43d c3e3 40be e83b f2bd 1254 d43d
000003d0: 4a2a e4bc bc2b ed3b 3194 32bc 8adc 273e
000003e0: 80b2 f6bc 902b 213d cd3f 83be c272 d7bd
000003f0: 765a 2dbe a9c9 87bd 2a5c 573e 49ba 223d
0.07385987 -0.0073253997 0.044386674 -0.11305697 -0.13778158 0.041147545 0.08985638 -0.15447481
0.07493764 0.25998977 -0.12402759 0.023606308 -0.07607855 -0.06753514 -0.13062362 -0.112539366
0.083387524 -0.12806137 -0.08390106 0.07257289 0.12269809 0.21974015 0.047048897 -0.14722215
-0.017271696 -0.16365393 0.07873322 -0.07292895 0.10835746 -0.09841632 0.08008706 -0.08623742
0.086064376 0.06959252 0.16639894 -0.2203856 0.060370903 0.013434004 -0.058278095 -0.024336686
-0.10822976 -0.03896537 -0.050867617 -0.1599169 -0.22085229 -0.06699642 0.051699627 -0.018502358
0.08701098 -0.12015248 0.06475886 -0.032277547 0.2392304 -0.17869663 -0.072730266 -0.03964348
0.16374546 0.16845092 -0.110246226 0.02722365 0.027438572 -0.19798023 0.009857203 0.016795369
-0.042011503 -0.22826141 0.16158086 0.03988086 0.014909695 0.06660069 0.033083342 0.106205985
0.07757773 0.16852218 -0.15611006 0.10449974 -0.08612993 -0.014513489 0.030977475 0.18332171
-0.06472352 -0.09949181 0.10611022 -0.096757196 0.051235728 -0.12450863 -0.13200961 0.047558475
0.107039995 -0.048140697 0.062041547 0.06073388 -0.028081458 0.19646746 -0.049582567 0.09681455
0.014964491 0.021592269 0.17287505 -0.0886462 -0.17919905 -0.12109853 0.10767411 0.0400586
0.07260218 -0.16500652 -0.05242067 0.017667167 0.009295909 0.111860424 -0.06786598 0.057346117
-0.14225823 -0.15796292 -0.07647983 0.021889137 -0.13121374 -0.01808844 0.10792199 0.09509525
-0.12947556 0.18628089 0.11680625 0.08598545 0.17458181 0.004408844 -0.104002796 -0.11405404
-0.08277452 -0.12258857 0.118057944 -0.09923096 -0.03791752 0.024453888 0.075919926 0.061920438
0.033496954 0.045334417 -0.039054614 0.2527202 -0.09034286 -0.07067211 -0.06975938 -0.16747838
-0.094638355 -0.09677271 0.009334166 0.06513466 -0.10822937 -0.20560655 -0.22600625 -0.057909805
-0.13618928 -0.092740454 -0.23128074 0.09708786 0.18612583 0.053124666 0.06435849 -0.12603396
0.08710243 0.101246096 -0.18537271 0.22845452 -0.0044908114 -0.10759804 -0.022611663 -0.061679028
0.06973594 -0.20140754 0.15492886 0.11796747 0.15461716 0.056635775 0.13621892 0.07837631
0.06425312 0.079825364 -0.13931635 -0.2001593 0.046009902 -0.017281642 -0.11602606 0.10579197
-0.020972827 -0.02997661 -0.10907607 -0.15386993 0.1648395 0.027476968 0.036795814 -0.12075602
0.06492927 -0.11573512 -0.06368408 0.017017003 -0.11386208 0.024231367 0.16437046 0.11946341
-0.07341589 0.16104814 -0.037041523 0.1488382 -0.04113526 -0.044077832 -0.19143936 0.16805166
-0.009715125 0.022494338 0.12714505 -0.07549784 -0.14459765 0.11621513 -0.06594002 0.14039555
-0.105840355 0.1660984 -0.053641245 -0.13125251 -0.18988581 0.07536427 0.21088597 -0.013946092
0.03258537 0.031729966 0.05360316 -0.17327227 -0.109208584 0.13781303 0.025175821 0.057730544
0.06433928 0.040968265 0.05830162 -0.09026432 -0.13003428 -0.17237225 -0.057791427 -0.064449854
0.08827419 -0.18836884 -0.118278325 0.10367598 -0.027852196 0.0072378796 -0.010899589 0.16392723
-0.030114412 0.039348185 -0.25634614 -0.10519935 -0.1692904 -0.066302605 0.21031252 0.039728437

recommender_net/embedding_1/embeddings f4 [300, 1]
00000000: 4c8e 70be 571b 1a3f 654f 3e3e 676e e03e
00000010: c684 d43e c98b 3b3e cbe8 afbd 8904 0ebf
00000020: 650c cebc fd1f 853e c4e6 c4be 3a49 cfbd
00000030: cc5e 1fbd cddc 14be 6236 a43e e65d 87bd
00000040: 1b95 12be 65e7 b6bb 63fa dd3d dc3a 833e
00000050: 61f2 cf3d a2f0 153d ef73 3dbd cc70 dbbe
00000060: 9306 84be 3be3 d73e e44a 523e e05c b23e
00000070: 179f ae3d cef1 88be 4bb7 a8bd 5153 dabd
00000080: 650d a0be f423 d53c 2d8a acbe d0b9 af3e
00000090: c3d8 5c3d 2cac 683e a9a4 9abc 892a bbbc
000000a0: 1a2f f63d 4c42 4bb9 7bdf 533c dcd0 7abe
000000b0: dcdf a2bb 6c3b 38be cad3 443e 991b 3a3e
000000c0: 9746 84be c777 213e 6eb2 20bf 96cf 0c3c
000000d0: ce8c 843d ba1b a6bd 3d28 52be 034d 873d
000000e0: 576e 013e f92b 263e a09c 95be 09ca f93b
000000f0: 5604 0fbb a2fd 743e efbe 083f 5418 d8bd
00000100: 03e6 963d 5d17 bf3e 27c4 8d3e 17f4 76bc
00000110: 22e1 9a3e ee90 c7bd 7561 a6be 14da c63d
00000120: a5ec 9f3e 3fc7 8abd fe75 1a3e 4db7 85bd
00000130: 8b9d c73e 90e9 bebe 685a b53c 9d30 00bd
00000140: 6a59 72be 7b35 b83e b8e4 6bbd 082c 183e
00000150: 3e22 2a3e f0ce 583e 3145 093e e886 aa3e
00000160: 9ff1 363e 2374 14be ca0c b63d 7e85 87be
00000170: 0732 8bbe aaab d1be a007 443d 418f e7be
00000180: 6232 bbbe 2998 c9be 2b5b 453e 0734 243e
00000190: eb2f 0dbd 3503 39be 4da9 f4bd 5c8c 96bd
000001a0: 2b64 af3e ff0d c53c 78da 41be 6af3 e63e
000001b0: 970e 81bd 4b1b f6be 1151 443d b149 95be
000001c0: 7f67 3b3e d20a 6fbe bcfc b1bd 9f7d 6c3e
000001d0: 61a9 e63c 3aef 0f3c 4bf8 08bf 1fa3 613e
000001e0: 0ed4 963d 8b95 6d3e f5f3 c6be ee8d 8bbc
000001f0: fe9b 873e 00b6 a4be 1888 18be d8c0 823c
00000200: 751f 263d 1645 e53d 4ada 9a3c 9af0 cabd
00000210: d3bc c2be b35c febe b5d3 05bf 70ba d03e
00000220: 31a1 833e e2c3 78bb 7cac 1f3e 294b 74be
00000230: 03b7 fb3d 3e79 d23d f1ef b03e de87 da3e
00000240: ba40 8a3e 6f76 9fbe 6ace e7bc a382 98bd
00000250: 488b 583d 1223 82bd 6963 6f3e 6a69 26be
00000260: 7e7d cdbd 5aed fa3d 394d 943e 3bb7 8b3e
00000270: 8205 f13d 36ab c83e 9701 273d d3d2 10be
00000280: d134 f73d 26bc cdbd 0731 b6bd 6b67 f8be
00000290: 2c86 1f3e e5e6 e73d 996e 06be 72a4 d0bd
000002a0: af20 163d 05ce e8be 8cf5 b3be 446e b1be
000002b0: 43c2 b2bd e927 e03e b471 263e 921c 6e3e
000002c0: b66c 25bf 5776 643d 9762 033e 14d5 d03e
000002d0: e6ff fb3d 28ef dfbd f3c0 31be 4048 d5be
000002e0: 68c1 21be f45f ca3e 78e4 403e d2f2 bb3e
000002f0: cafc 4cbd 683b eb3c 60d6 073e c0e3 a2be
00000300: 6e1a 443e 4a5b a7be 2ff5 93be ae7e 203c
00000310: 00e8 7dbe 782b b13e 046e 5a3e 8b2e 93bb
00000320: 1bab a53d 8f9c 743d 47ff ce3e 2828 f43d
00000330: a6a7 4fbe 371f bb3e 3a90 e93d ccd8 7f3e
00000340: b0fb b8be e221 ab3d f22c 1ebf 30c2 05be
00000350: b2fa 0fbc bccb ac3d d52d ad3e 4f64 e8be
00000360: fdb3 cdbd 85d8 17be 9ded 97be c2a6 083f
00000370: 9de1 d0be 1b37 1dbe 805c 1bbe af7d 033f
00000380: 652f c13d 287f 653d 5fe6 cebc b072 243e
00000390: a9eb 833d 4a32 0fbc 2848 0b3f 9548 913e
000003a0: 27a2 87bb b752 3bbc cbdd eb3d 07eb 853e
000003b0: 223b e13e e5ef 83be 4fd8 d1be b745 31be
000003c0: a6e9 9bbe b2b7 1abe c507 53be e626 873e
000003d0: a3e5 1f3f 21c9 36bd 55a4 aabd 2d0e e5be
000003e0: c348 873e 19fd 05be f96a 1cbf 0eb2 efbc
000003f0: 2ca0 893d 9b74 b83d 1985 ffbd a6f2 113f
-0.23491782 0.6019797 0.18584974 0.4383423 0.41507548 0.18315043 -0.085893236 -0.5547567
-0.025152395 0.26000968 -0.3845731 -0.10121389 -0.038908765 -0.14537354 0.3207274 -0.066097066
-0.14314692 -0.0055817836 0.10838773 0.25630844 0.10153652 0.03660644 -0.04625314 -0.42859495
-0.25786266 0.4216555 0.20536381 0.34836483 0.08526438 -0.26746982 -0.08238085 -0.106604226
-0.3126022 0.02601812 -0.3369917 0.3432145 0.053917658 0.22721928 -0.018877344 -0.02284743
0.12020703 -0.00019384286 0.0129317 -0.24493736 -0.004970534 -0.17991418 0.19221416 0.1817459
-0.25835106 0.15768348 -0.6277226 0.008594414 0.06472169 -0.08110757 -0.20523162 0.06606486
0.12639748 0.16227712 -0.29221058 0.0076229614 -0.0021822653 0.23924878 0.5341634 -0.10551515
0.0736809 0.37322512 0.27688715 -0.015072844 0.30249888 -0.0974444 -0.3249623 0.09709564
0.31235233 -0.067762844 0.15084073 -0.065291025 0.38987383 -0.3728757 0.022137836 -0.03129636
-0.23666921 0.35978302 -0.05759117 0.14860547 0.16614625 0.2117269 0.134053 0.3330605
0.17865609 -0.14497428 0.08889158 -0.26469034 -0.27186605 -0.40951282 0.047858834 -0.45226482
-0.36561877 -0.393739 0.19273059 0.16035472 -0.034469526 -0.1806763 -0.11946354 -0.0735099
0.3425611 0.024054525 -0.18930995 0.45107585 -0.06301611 -0.48067698 0.047928873 -0.29157785
0.183012 -0.23343971 -0.086907834 0.23094796 0.028156938 0.008785063 -0.53503865 0.22034882
0.07364665 0.23201577 -0.38858 -0.01703545 0.264862 -0.32170105 -0.14895666 0.015961096
0.040557344 0.11194818 0.018902916 -0.09909172 -0.38034686 -0.496801 -0.52276164 0.4076724
0.25708917 -0.0037958552 0.15593141 -0.23856796 0.12290766 0.10277031 0.3455806 0.42681783
0.27002507 -0.31145045 -0.028296668 -0.07446792 0.052867204 -0.063543454 0.23377766 -0.1625115
-0.10033701 0.122523025 0.28965166 0.2728823 0.11768629 0.39193124 0.040773 -0.14142923
0.12070621 -0.10045652 -0.0889607 -0.48516402 0.15578526 0.113233365 -0.13128127 -0.101876155
0.036652263 -0.4546968 -0.35148275 -0.34654438 -0.08728459 0.4378045 0.16254312 0.23253086
-0.64619005 0.05577692 0.12830578 0.40787566 0.12304668 -0.10934287 -0.1735876 -0.41656685
-0.15796435 0.3952633 0.18837154 0.36708695 -0.050045766 0.02871485 0.13265371 -0.31814384
0.19150707 -0.32686836 -0.28897998 0.009795828 -0.24795532 0.34603477 0.2133103 -0.0044916323
0.080892764 0.05971962 0.40429136 0.11921722 -0.20278797 0.36547253 0.11404462 0.24985045
-0.36129522 0.08356072 -0.6178733 -0.13062358 -0.008787798 0.08437297 0.3382403 -0.4538903
-0.10044096 -0.1482869 -0.29673472 0.5337945 -0.4079713 -0.15353052 -0.15172005 0.5136365
0.09432868 0.05602947 -0.025256334 0.16059375 0.06441433 -0.008740017 0.54406977 0.28375688
-0.004139203 -0.011433295 0.11516913 0.26155874 0.43990427 -0.25768963 -0.40985343 -0.1731175
-0.30451697 -0.15109137 -0.20608433 0.26396865 0.6245977 -0.044625405 -0.08332125 -0.44737378
0.264227 -0.1308483 -0.6110073 -0.029259708 0.067200035 0.09006616 -0.12476558 0.5701088

recommender_net/embedding/embeddings f4 [300, 50]
00000000: cc4b c73d f45c 80bc c7c9 093e e8d6 553c
00000010: f094 cfbc 46af 303c 88d9 3abd b3d5 68bd
00000020: 312f 63bd eaf5 db3c 2ad9 553d b9f9 a4bd
00000030: 6a42 973d 0842 c5bc 60a4 99bd 8103 8ebd
00000040: d0b8 10be cafe 58bd 4116 9fbd 7495 5f3d
00000050: e384 80bd b3e0 ca3d b8fa d53d 4267 07bd
00000060: ed07 2cbe df5c 1c3d abd6 b53c 0e3a f7bd
00000070: 08b9 053e 6f73 933d cc83 973c 607e 12be
00000080: ff7b 07be 9735 94bd 89be 913d 9a82 c7bc
00000090: 2964 2f3e 94e7 50ba 8c63 debd 5190 86bd
000000a0: 5d2c 973d 3a4c 153e 2888 193e 39fe 903d
000000b0: c596 61bd b164 0f3d e6e1 e039 1f95 333d
000000c0: b042 5b3c 50a9 42bc 8f66 00bd fe21 b7bd
000000d0: 5949 02bd b650 32bd feac 263c 1293 81bd
000000e0: 3232 aa3c 8aea e6bd 0d38 a03d ff97 b3bb
000000f0: 1706 a7bc de0f a8bd e52c 833d e8b4 84bc
00000100: 7a05 f23d fc8c 1dbe e8b8 8f3d 80ab 943d
00000110: ab64 8b3d e384 e23d df87 ac3d e6c0 a33d
00000120: 510c d1bd 18cf 98bd c634 913b c421 e23c
00000130: 7e9d 07be 8913 72bd 27bf 0cbc df6f 22bd
00000140: 3e9f 563d b960 e83d daaa 7ebc f0bb 863d
00000150: 875a 08be 267b 8d3d 585b b23b 3b9c e63d
00000160: 078b 8e3d 0f51 8b3d adca dabd e5d0 c03d
00000170: 57dd 4fbd 4018 ae3d 9b50 bf3d 30b2 5d3d
00000180: 7e93 ef3c 33ff cf3d ebc4 843d 3e40 45bd
00000190: c624 bd3d ff6c f3bd 10e0 69bd 2238 a9bd
000001a0: d19b 37be 993a 09bd cf80 2c3d 4dc0 3b3d
000001b0: 6c35 513c ad00 f1bd 42d5 03be f551 5b3d
000001c0: 8c81 1b3e acf2 3e3d fc9f 033e 39c5 f8bb
000001d0: 984d 7f3c be4b 073e 1dae af3c 708c 4c3c
000001e0: cfc3 883d 3af1 1bbe 32ff 693d 2d55 093b
000001f0: 232a aabd dd9c 36be a81d 4ebb de60 593d
00000200: ee77 47be 28a7 8b3c 23ea e43d 6b17 0fbe
00000210: 07d5 f63c 73e6 d8bc 7c84 9bbd 5dc3 c7bd
00000220: 3775 b9bd 0c7e d73d d023 66bc a73f 94bd
00000230: 78ab 093d 1d38 3bbc 53c3 1d3d 6353 853c
00000240: 74ec 12be be0f 203e d2d3 ec3c 5065 9c3d
00000250: d406 a8bd 2e63 113e 4bc2 823d e942 9abd
00000260: b153 833d 34b2 433d e9c2 8a3c 3bd9 d0bc
00000270: 3003 79bc 46e2 0dbe 6b4f 90bd 9e3d 28bd
00000280: 798b bb3c c514 0d3e 1732 91bc 0623 3fbe
00000290: 0621 683d 0152 7f3a 7f82 c0bc 07a7 213c
000002a0: b3fc 82bd 014f 98bd b5db 4aba 2c18 153e
000002b0: bc55 17bd fa91 1ebd 7369 a53c 64f2 1cbe
000002c0: 56d4 05be cc9c ffbc cabe d3bc 8a77 be3d
000002d0: 268f 8fbc 090f f1bb 0f63 c83c 0456 cebc
000002e0: bdfe 9dba a073 ac3c f723 4e3c ee61 103e
000002f0: 2323 763d 1346 fbbd 6ab4 08be cd56 6fbd
00000300: 87e8 533c 523c 203e 7c44 aabc 6f62 fa3b
00000310: 6deb 4c3d b6ee 81bc 5a88 8ebd 5874 673d
00000320: 3a5c 04bd 0d53 ba3d 45e6 16bc d5bc bbbc
00000330: 8728 933d c1a4 c3bd d0fc 22bc e74a 383e
00000340: 0238 f83d e459 8f3d de88 bdbd 6751 063e
00000350: 3309 353b caea 86bc 9e2a a33c 4492 163c
00000360: a59d 7b3d 6811 69bd 9629 e0bc e5b3 143d
00000370: e3cb 97bc c194 0abc feee fa3d dca5 0abd
00000380: e449 16be 223c 163e bd33 7cbd 4d80 6d3d
00000390: 9a49 5cbd 528f 5e3d ca00 95bd d242 da3c
000003a0: 3b72 013d c24e d5bd c799 d13d 4a6e 0dbd
000003b0: e6cd 513d 8201 d73d 87ee 0fbe cd18 03bd
000003c0: cd51 e23d ce48 9dbd b959 423b 2e9c adbd
000003d0: bb3f b13c 516a 893c f9cd b3bd 23ab e9bc
000003e0: acf0 763c fa2d 90bd d273 293d 393e b23d
000003f0: 5038 5bbd 5e91 993c e6c3 06be 4ed2 023e
0.09731254 -0.015669324 0.13455878 0.013051726 -0.025339574 0.010783976 -0.04561761 -0.056844424
-0.055464927 0.02685066 0.052209057 -0.08055443 0.07385714 -0.024079338 -0.07502055 -0.06934262
-0.14133 -0.05297736 -0.077679165 0.05458589 -0.06275346 0.09906139 0.104482114 -0.03305746
-0.16799898 0.038174506 0.022197088 -0.1207162 0.13058865 0.071997516 0.018495463 -0.1430602
-0.13230895 -0.07236784 0.0711642 -0.024354268 0.17128052 -0.0007969078 -0.10858831 -0.06570495
0.073815085 0.1457986 0.14993346 0.07079739 -0.055075426 0.035008136 0.00042892917 0.043843385
0.013382599 -0.011881188 -0.031347807 -0.0894203 -0.03180823 -0.043534003 0.0101730805 -0.063268796
0.020775888 -0.112752035 0.07823191 -0.005480766 -0.020388646 -0.082061514 0.06405047 -0.016199544
0.11817451 -0.15385813 0.0701769 0.072592735 0.0680631 0.110605024 0.08424353 0.07995777
-0.10207427 -0.07461375 0.00443134 0.027603991 -0.13243672 -0.05910066 -0.008590496 -0.03965747
0.05239796 0.113465734 -0.015543664 0.06578815 -0.13315783 0.06908254 0.005443018 0.11260267
0.06960111 0.0680257 -0.106831886 0.094148435 -0.050748195 0.08500719 0.09341546 0.05412501
0.029245134 0.10156097 0.064828716 -0.04815697 0.092355296 -0.11886024 -0.05709845 -0.082626596
-0.17930533 -0.03350315 0.04211503 0.04583769 0.012769084 -0.11767707 -0.1287432 0.053544957
0.15186137 0.04661815 0.12853998 -0.00759187 0.015582465 0.13212487 0.021445328 0.012484655
0.066779725 -0.1522874 0.05712814 0.002095531 -0.08308818 -0.17833276 -0.0031450782 0.053070895
-0.19479343 0.01704748 0.111774705 -0.13973777 0.030130876 -0.026477074 -0.07593629 -0.097540595
-0.0905556 0.105220884 -0.014046624 -0.07238703 0.03361079 -0.011426953 0.038516354 0.016275113
-0.14348012 0.15631005 0.028909598 0.07636511 -0.08204427 0.1419799 0.06384715 -0.07532293
0.06412447 0.04777737 0.016938644 -0.025494209 -0.015198514 -0.13855848 -0.07046398 -0.041074388
0.022893654 0.13777454 -0.01772408 -0.18665704 0.05667212 0.00097396976 -0.023499725 0.009866483
-0.06395855 -0.07436944 -0.00077384274 0.14560002 -0.036946997 -0.038713433 0.020191884 -0.1532684
-0.13069281 -0.031202696 -0.025847811 0.09300144 -0.017524313 -0.0073565287 0.024461297 -0.0251875
-0.0012054067 0.021051228 0.012581817 0.14099857 0.060092103 -0.12269225 -0.13350073 -0.05843239
0.012933857 0.1564801 -0.020784609 0.0076411287 0.050029207 -0.015860897 -0.06959601 0.05650744
-0.032314517 0.09097872 -0.009210174 -0.02291719 0.07185464 -0.09552909 -0.0099479705 0.17997323
0.12120058 0.06999567 -0.09254621 0.1311699 0.0027623891 -0.016469378 0.019917782 0.009190146
0.06142964 -0.056901366 -0.02736358 0.036304373 -0.018529838 -0.008458317 0.122526154 -0.033849582
-0.14676625 0.14671376 -0.06157278 0.057983685 -0.05378113 0.0543359 -0.07275541 0.02664319
0.03160308 -0.104154125 0.10234409 -0.034529008 0.05122175 0.104983345 -0.14055835 -0.032006074
0.110507585 -0.07679902 0.002965553 -0.084770545 0.021636834 0.016774328 -0.087795205 -0.028523987
0.015072029 -0.07040019 0.04137022 0.08703274 -0.0535205 0.018746074 -0.13160667 0.12775537
