ML/model/model_kuliner.tflite (tflite, 74436 bytes, 4 tensors)

recommended/embedding_3/embeddings f4 [39, 1]
0.12821372 -0.15794905 0.11537573 -0.024061523 0.19526891 -0.082545646 0.1388216 -0.10158331
0.028385427 0.032032527 0.026447704 -0.06749992 0.00047845105 -0.004988671 -0.08772768 -0.09661206
-0.02359798 0.150588 0.035325386 0.019959286 0.0018146784 0.061609633 -0.06899474 0.1792216
0.08330292 -0.0086926 -0.0033714722 -0.12616515 -0.09845585 0.007476002 0.017191015 -0.013701459
-0.070668615 -0.1192851 0.07781564 -0.1857447 0.10075158 -0.09419021 0.102866285
00000000: 754a 033e 65bd 21be 1c4a ec3d ac1c c5bc
00000010: 93f4 473e b10d a9bd 4027 0e3e e90a d0bd
00000020: 8e88 e83c 8a34 033d dba8 d83c 663d 8abd
00000030: 9dd8 fa39 0178 a3bb 92aa b3bd 8bdc c5bd
00000040: 8d50 c1bc be33 1a3e 5ab1 103d a881 a33c
00000050: 81da ed3a 625a 7c3d 1d4d 8dbd de85 373e
00000060: b99a aa3d 686b 0ebc ebf3 5cbb 7031 01be
00000070: 38a3 c9bd 40f9 f43b 2cd4 8c3c 167c 60bc
00000080: b5ba 90bd bf4b f4bd ce5d 9f3d dc33 3ebe
00000090: d856 ce3d cce6 c0bd 8fab d23d

recommended/embedding_2/embeddings f4 [39, 50]
-0.1098683 -0.24593763 -0.20341632 0.10073364 -0.023216812 0.055471774 0.06468642 -0.19818237
-0.17929494 0.051577143 0.09099595 0.06701842 0.13235268 0.0156108765 0.002180707 0.073343515
0.047562234 0.14441001 -0.25418288 -0.106487416 -0.09674941 -0.13467917 -0.1529634 -0.06608498
0.08697918 -0.020288687 -0.14473815 0.017980628 -0.1667328 0.03878387 -0.057179138 0.061293487
0.1601302 0.21464457 0.05027085 0.11591079 0.06674458 0.063882045 0.06532401 0.17666996
-0.17836347 -0.19851366 0.21385798 0.08614857 -0.10473934 -0.20148332 0.24624658 0.19528252
0.21100762 -0.11505084 0.08760259 -0.06993107 0.15637623 0.12771502 0.12137918 -0.03235675
0.171616 -0.16088931 0.22366619 -0.13461673 0.032983325 0.18395045 -0.09673128 -0.04241664
-0.17587537 -0.15889934 -0.231584 0.010046842 -0.011157078 0.09947816 0.1046643 -0.0452281
-0.06221301 -0.028241124 -0.077173464 -0.10575582 0.074902445 0.10438463 -0.07262249 -0.0585644
-0.04409524 -0.038312502 0.015861318 -0.07717118 0.024159681 -0.085425965 0.02564562 -0.06705274
0.18927561 0.0062181954 0.20117925 -0.12223903 0.06245982 -0.019619392 0.1292674 -0.18584806
-0.010209445 -0.12875706 -0.11874568 0.08245728 0.05525313 -0.17829274 -0.083131686 0.10312647
-0.039132703 0.13825653 -0.1394233 0.0022527887 0.13326001 0.06406019 -0.08242894 -0.16053905
0.11845567 0.14066376 -0.12828276 -0.115755804 -0.031249696 0.13145936 0.19412361 0.033049855
0.15844502 0.24854115 0.09263372 0.059569743 0.08289873 0.074158154 0.34548077 -0.016668579
-0.054645546 0.25812173 -0.041006453 0.0029846474 0.02117425 0.06568323 -0.1851667 0.17448235
-0.050364748 -0.030545318 -0.069683015 -0.116891645 -0.11975015 -0.2552074 0.0008456375 -0.0945973
-0.010737057 0.11939196 0.14010236 0.07780964 0.13366403 0.048407115 0.07106326 -0.17335558
0.1731726 0.2952977 0.23391184 -0.25385308 0.09629056 -0.010088159 0.13398579 0.04104537
-0.26936957 -0.22556856 0.013639373 -0.17663614 -0.07512746 -0.080416374 -0.10141671 -0.01716514
0.072912216 -0.009327836 0.06991285 -0.1032913 -0.1139934 0.27153116 -0.14422561 -0.16595685
0.09199835 -0.08741633 -0.11106393 -0.14451124 0.16646557 -0.06048661 0.17993653 -0.12577799
-0.047937848 0.19690713 -0.008855588 0.0970761 0.14341837 0.06518124 -0.06312179 -0.23321421
0.16550149 0.023287382 -0.022797624 0.14059365 0.12636782 -0.16089836 0.037643697 -0.043423325
0.025409821 -0.16640083 0.055319753 0.09847846 -0.18205667 -0.08806959 -0.16209996 -0.20747922
0.27698255 -0.25600845 0.32185256 0.14353919 0.25032783 -0.02759527 -0.15549253 -0.07657838
0.11143679 0.19886252 0.05502204 0.14221977 0.11546157 -0.08071406 0.039566968 -0.03711477
0.059776593 0.08491232 0.0524125 -0.1046213 0.12712958 0.13421263 -0.085548334 0.23894714
0.16334255 -0.12194081 -0.07669397 -0.01263057 -0.057870485 -0.08595707 0.11187557 -0.04895111
0.096641205 0.03405382 0.036278103 0.06882832 -0.20201416 -0.017964292 -0.1408657 0.013274501
0.048129883 -0.10139602 -0.06755153 -0.12591855 -0.28847086 -0.0113383345 0.1613793 -0.02970366
00000000: a202 e1bd 13d7 7bbe 5e4c 50be 704d ce3d
00000010: 2f31 bebc 5f36 633d 507a 843d 52f0 4abe
00000020: 1899 37be 8e42 533d 165c ba3d f440 893d
00000030: 7687 073e c3c4 7f3c 31ea 0e3b 2035 963d
00000040: 9ed0 423d 38e0 133e 4224 82be 1316 dabd
00000050: 8e24 c6bd 56e9 09be 70a2 1cbe 9057 87bd
00000060: 2422 b23d 7634 a6bc 3d36 14be 1c4c 933c
00000070: 01bc 2abe d6db 1e3d ac34 6abd e10e 7b3d
00000080: 2cf9 233e c9cb 5b3e cfe8 4d3d a362 ed3d
00000090: 62b1 883d 97d4 823d 98c8 853d f8e8 343e
000000a0: eaa4 36be 2a47 4bbe 96fd 5a3e a96e b03d
000000b0: 9481 d6bd a551 4ebe 1028 7c3e 24f8 473e
000000c0: 6212 583e c69f ebbd fd68 b33d 0538 8fbd
000000d0: 1721 203e bac7 023e a695 f83d 8388 04bd
000000e0: 1bbc 2f3e 2bc0 24be c008 653e f8d8 09be
000000f0: 8619 073d 825d 3c3e 0d1b c6bd 12bd 2dbd
00000100: ac18 34be 82b6 22be 5b24 6dbe 829b 243c
00000110: 2dcc 36bc 35bb cb3d 3d5a d63d 1a41 39bd
00000120: 12d3 7ebd ee59 e7bc 1f0d 9ebd 8296 d8bd
00000130: 7466 993d 9cc7 d53d 1abb 94bd 39e1 6fbd
00000140: 369d 34bd 92ed 1cbd 98ef 813c ec0b 9ebd
00000150: 86ea c53c cff3 aebd c316 d23c f252 89bd
00000160: 77d1 413e 01c2 cb3b ef01 4e3e 7558 fabd
00000170: ded5 7f3d d9b8 a0bc ac5e 043e f44e 3ebe
00000180: 8445 27bc e4d8 03be ef30 f3bd 5ddf a83d
00000190: 1b51 623d 5f92 36be f240 aabd f933 d33d
000001a0: 9d49 20bd 1f93 0d3e fbc4 0ebe 86a3 133b
000001b0: 5075 083e fd31 833d 81d0 a8bd 5964 24be
000001c0: e398 f23d 290a 103e 8e5c 03be 6111 edbd
000001d0: 5dff ffbc 489d 063e 57c8 463e 495f 073d
000001e0: 693f 223e 9281 7e3e bfb6 bd3d 67ff 733d
000001f0: cfc6 a93d 3be0 973d dbe2 b03e 8b8c 88bc
00000200: 02d4 5fbd 8828 843e 62f6 27bd 139a 433b
00000210: 9f75 ad3c ee84 863d 579c 3dbe 80ab 323e
00000220: 444b 4ebd 2d3a fabc f8b5 8ebd e364 efbd
00000230: 913f f5bd 8baa 82be c6ad 5d3a 3bbc c1bd
00000240: 7bea 2fbc c683 f43d fe76 0f3e a95a 9f3d
00000250: 39df 083e 8a46 463d 9d89 913d 2084 31be
00000260: 2854 313e 4331 973e 9686 6f3e 08f9 81be
00000270: fc33 c53d ce48 25bc 9233 093e 311f 283d
00000280: cfea 89be 72fb 66be ad77 5f3c 1be0 34be
00000290: 6ddc 99bd 57b1 a4bd 90b3 cfbd e89d 8cbc
000002a0: 0053 953d c8d3 18bc 782e 8f3d 648a d3bd
000002b0: 5f75 e9bd 2206 8b3e e1af 13be 98f0 29be
000002c0: a269 bc3d 5507 b3bd 7c75 e3bd c1fa 13be
000002d0: f375 2a3e cfc0 77bd 4841 383e f2cb 00be
000002e0: 7a5a 44bd 06a2 493e 0717 11bc d6cf c63d
000002f0: 44dc 123e be7d 853d ff45 81bd b5cf 6ebe
00000300: 3979 293e 2ec5 be3c 15c2 babc c8f7 0f3e
00000310: 9166 013e 8ac2 24be 4730 1a3d a8dc 31bd
00000320: 4228 d03c fb64 2abe f796 623d 13af c93d
00000330: 106d 3abe d45d b4bd 88fd 25be 6f75 54be
00000340: a8d0 8d3e 8a13 83be dcc9 a43e f0fb 123e
00000350: f82a 803e 7a0f e2bc 6f39 1fbe 20d5 9cbd
00000360: f938 e43d 9ea2 4b3e ca5e 613d 0fa2 113e
00000370: 1e77 ec3d 6a4d a5bd f910 223d a805 18bd
00000380: 4dd8 743d 83e6 ad3d 7dae 563d b143 d6bd
00000390: 422e 023e 096f 093e f733 afbd 8fae 743e
000003a0: 4543 273e 1abc f9bd ba11 9dbd 73f0 4ebc
000003b0: 9a09 6dbd 430a b0bd 051f e53d f680 48bd
000003c0: d3eb c53d 057c 0b3d 5998 143d ddf5 8c3d
000003d0: cddc 4ebe da29 93bc 193f 10be 4b7d 593c
000003e0: d723 453d b7a8 cfbd 7558 8abd cbf0 00be
000003f0: 74b2 93be 6cc4 39bc 9d40 253e 1755 f3bc

recommended/embedding_1/embeddings f4 [300, 1]
0.1851883 0.3088352 0.09136402 0.2601165 0.27908832 0.45751747 0.80068964 0.28606066
0.72401494 0.5922486 0.1836374 0.70109725 0.2052887 0.59410495 0.35740665 0.2748283
0.39117402 0.7266621 0.5678266 0.057006925 0.28469023 0.1814148 0.5169205 0.28261477
0.67083853 0.7514374 0.24738275 0.83951616 0.36630467 0.1479574 0.17794226 0.31907824
0.16268213 0.5222918 -0.009644855 0.16438562 0.454284 0.5512965 0.5909645 0.385497
0.026175424 0.20850018 0.37210423 0.4384033 0.54996157 0.58439875 -0.34413898 -0.10851915
0.088684835 -0.04439989 -0.11701835 0.117146276 -0.18503569 -0.10234136 -0.026391756 -0.113360226
-0.56879723 -0.3360509 -0.03506329 -0.053193502 0.37695763 0.13674244 -0.4160537 -0.16426632
0.012859985 -0.43461853 -0.34293398 0.22227061 -0.4702616 0.41763157 -0.048302352 -0.19509567
-0.44764206 -0.28702495 0.16038854 -0.1767739 -0.0010373754 0.46650407 -0.20083863 -0.4721533
-0.57677805 0.031840563 -0.07974984 0.1816031 -0.099674776 -0.14061138 -0.048645057 -0.82227856
-0.038385633 -0.5958682 -0.020068122 0.24127482 -0.08108118 -0.019056294 0.13774331 -0.31331116
0.3949765 -0.049428456 0.120484605 -0.29231325 -0.256574 -0.18801957 -0.13203372 -0.08245542
0.29073173 0.02617843 -0.1644595 0.31120422 -0.06512601 -0.2670581 0.09843993 -0.20470293
0.19476932 0.17780355 0.44321957 -0.47362712 0.07884537 0.09825457 -0.41118243 -0.0022607872
-0.024690395 -0.05518927 -0.75302887 -0.17307834 -0.18898319 0.23364817 0.034335647 -0.12403397
-0.048966233 0.26951602 -0.3292235 -0.06430607 -0.124914505 0.058047894 -0.15014976 -0.5400278
0.31551424 -0.12614077 0.06313247 0.109483615 0.20073174 -0.24494657 0.19029674 -0.046852153
-0.18499626 -0.42375773 -0.088783756 -0.22944462 -0.037915204 0.53456026 0.17548968 0.05784575
-0.37507382 0.51725864 -0.44245398 0.2871018 -0.07978204 0.017691785 -0.17271039 -0.054685794
-0.0096285 0.04696121 0.17299232 -0.10002233 0.19721854 0.021926295 0.06891163 0.26917264
0.040132616 -0.19628684 -0.12642913 -0.04562162 -0.2819044 -0.20617993 0.030394292 -0.03325721
0.1937452 -0.08215159 -0.15037718 -0.31942737 0.063783064 -0.31882504 -0.12356283 -0.045170892
-0.18964544 0.07132779 -0.040567234 -0.672961 0.34273276 -0.12844531 -0.17528008 -0.13088918
-0.15649064 -0.054054216 -0.15707538 -0.14422056 0.22969757 -0.17963722 -0.17683984 -0.1929671
0.023350751 0.24625248 -0.056615658 -0.12008428 0.08802617 -0.12266198 0.16915011 0.014194965
0.22809355 -0.2942572 0.032624852 0.12801772 0.15977995 0.07447607 0.34091184 0.065420784
-0.47044575 -0.42369157 0.03487994 -0.2538604 -0.009911137 -0.20034374 -0.07944545 0.11395845
0.07771307 0.10286182 0.020319788 0.31029746 -0.10619193 -0.1639156 -0.020331124 -0.20953204
0.18127406 -0.14131935 0.04485464 -0.3786877 -0.3091426 0.15631805 0.028350862 -0.26178387
-0.16229635 0.40815106 -0.008803802 -0.098597884 -0.20490384 -0.2881123 0.18333358 0.4301632
-0.757599 0.2782972 -0.21078445 0.21094374 -0.25629535 0.05769778 0.18761165 0.347391
00000000: 00a2 3d3e a61f 9e3e 0f1d bb3d fd2d 853e
00000010: aae4 8e3e bb3f ea3e fff9 4c3f 8b76 923e
00000020: 0b59 393f 9b9d 173f 710b 3c3e 1c7b 333f
00000030: 3337 523e 4317 183f 01fe b63e 4cb6 8c3e
00000040: f647 c83e 8706 3a3f 165d 113f 1880 693d
00000050: ebc2 913e cdc4 393e e754 043f e2b2 903e
00000060: 13bc 2b3f 345e 403f e751 7d3e 88ea 563f
00000070: 498c bb3e 2582 173e 7f36 363e 395e a33e
00000080: 2596 263e eab4 053f 7405 1ebc b454 283e
00000090: ea97 e83e c421 0d3f 7349 173f dd5f c53e
000000a0: d86d d63c 1281 553e 7284 be3e 6676 e03e
000000b0: 48ca 0c3f 289b 153f fc32 b0be 4a3f debd
000000c0: 65a0 b53d a9dc 35bd 51a7 efbd 63ea ef3d
000000d0: ff79 3dbe 5998 d1bd 8633 d8bc 6829 e8bd
000000e0: b29c 11bf dd0e acbe 869e 0fbd 6ee1 59bd
000000f0: 9700 c13e 3606 0c3e fe04 d5be 6e35 28be
00000100: b0b2 523c 5286 debe 0b95 afbe e89a 633e
00000110: 21c6 f0be ced3 d53e b0d8 45bd 29c7 47be
00000120: 5731 e5be eff4 92be e53c 243e 3804 35be
00000130: 8bf8 87ba 9fd9 ee3e a4a8 4dbe 14be f1be
00000140: baa7 13bf 406b 023d e253 a3bd 2af6 393e
00000150: 4a22 ccbd 6efc 0fbe 0a40 47bd d980 52bf
00000160: 413a 1dbd d18a 18bf e765 a4bc bf10 773e
00000170: e40d a6bd f21b 9cbc 950c 0d3e 526a a0be
00000180: 5c3a ca3e 7e75 4abd a2c0 f63d 15aa 95be
00000190: ab5d 83be 3488 40be d933 07be 63de a8bd
000001a0: cada 943e 2674 d63c 1268 28be 2956 9f3e
000001b0: c960 85bd d7bb 88be e09a c93d a59d 51be
000001c0: 9c71 473e 2212 363e aded e23e 417f f2be
000001d0: ae79 a13d b139 c93d 8186 d2be b729 14bb
000001e0: 8343 cabc 250e 62bd 80c6 40bf 733b 31be
000001f0: cf84 41be 7741 6f3e 89a3 0c3d 8605 febd
00000200: d190 48bd 01fe 893e fc8f a8be e7b2 83bd
00000210: 2dd3 ffbd a1c3 6d3d dcc0 19be 433f 0abf
00000220: 158b a13e 0c2b 01be 994b 813d f238 e03d
00000230: 9f8c 4d3e 46d3 7abe 26dd 423e 0be8 3fbd
00000240: a96f 3dbe c6f6 d8be 42d4 b5bd 88f3 6abe
00000250: f94c 1bbd f1d8 083f 91b3 333e aaef 6c3d
00000260: ad09 c0be 106b 043f 5489 e2be 02ff 923e
00000270: c464 a3bd 5dee 903c feda 30be 36fe 5fbd
00000280: dbc0 1dbc 665a 403d e624 313e 82d8 ccbd
00000290: a8f3 493e c69e b33c 8a21 8d3d ffd0 893e
000002a0: 1962 243d 6bff 48be a376 01be bcdd 3abd
000002b0: c655 90be d520 53be 73fd f83c b638 08bd
000002c0: 2465 463e 183f a8bd 7afc 19be fc8b a3be
000002d0: b2a0 823d 093d a3be 820e fdbd 1d05 39bd
000002e0: 6a32 42be 4e14 923d d429 26bd 2c47 2cbf
000002f0: ab7a af3e 2b87 03be 9f7c 33be d007 06be
00000300: 153f 20be f467 5dbd 5ed8 20be 8eae 13be
00000310: d735 6b3e d2f2 37be 8115 35be 2b99 45be
00000320: 134a bf3c 9c29 7c3e d2e5 67bd bfee f5bd
00000330: 1147 b43d 3436 fbbd b035 2d3e 0092 683c
00000340: 5b91 693e e1a8 96be a3a1 053d 1417 033e
00000350: 5b9d 233e e986 983d ff8b ae3e 55fb 853d
00000360: 44de f0be 1aee d8be 45de 0e3d fef9 81be
00000370: 5262 22bc e926 4dbe 4cb4 a2bd 0c63 e93d
00000380: 0828 9f3d 38a9 d23d af75 a63c 4fdf 9e3e
00000390: 287b d9bd 7ed9 27be 758d a6bc 918f 56be
000003a0: e89f 393e 05b6 10be 80b9 373d 5be3 c1be
000003b0: f047 9ebe d711 203e 1140 e83c 8908 86be
000003c0: 0431 26be 2df9 d03e d23d 10bc b0ed c9bd
000003d0: 50d2 51be 7583 93be ccbb 3b3e 5a3e dc3e
000003e0: 02f2 41bf f87c 8e3e e1d7 57be a301 583e
000003f0: 2539 83be 8254 6c3d 451d 403e 3cdd b13e

recommended/embedding/embeddings f4 [300, 50]
-0.028184 0.057979617 -0.053060725 -0.05449897 0.04569221 0.050815947 -0.11900988 0.08861012
-0.09166417 0.12282108 -0.0780348 -0.0022140108 0.025654122 0.0369715 0.019611945 0.047579426
0.06494911 0.029363861 -0.066020444 0.018122505 0.16587548 -0.04400194 0.081301734 0.11092524
0.08830979 -0.02897737 0.056052074 -0.038163427 -0.06303669 0.062274337 0.039086837 0.10643266
0.10490293 0.051684942 0.031776488 -0.09891132 0.013109978 0.04390564 -0.0053007724 -0.044102963
0.0023924995 -0.11009661 -0.044714883 -0.036627218 0.07646304 -0.043294042 -0.06251276 0.026625512
-0.01793031 0.12742457 0.021360014 0.14220604 0.012076226 -0.0064513665 0.062610894 -0.024314877
0.056839183 0.026405623 -0.09725541 -0.023702465 0.069154575 -0.056566004 0.0155961225 0.07310198
-0.035117693 0.01202647 0.04531502 0.0025725649 -0.102464184 -0.030711014 0.028022675 0.035621177
0.011506146 -0.038053766 -0.034376673 0.12128255 0.14272496 0.011185812 -0.059846755 -0.042443156
-0.08617116 0.09830398 0.038725305 -0.11878738 -0.088336825 -0.09277894 -0.05122087 0.036105275
0.045530427 -0.02784124 0.02055806 -0.10820873 0.0029285306 -0.014660472 0.115754135 -0.08348471
-0.11966769 -0.012683184 -0.023522774 -0.008560708 -0.04630474 0.08587273 -0.00046898128 0.03146507
0.11331446 -0.054957353 0.0015984194 -0.06814927 0.08883583 -0.010755221 0.034996938 -0.17604981
-0.014640736 0.005952745 -0.045602992 0.060512874 0.09003388 -0.12684354 -0.12136688 0.12854217
0.04402489 -0.07711659 0.05044877 0.017084768 0.11840565 0.0040373574 0.036735673 0.06251897
-0.03233416 -0.10898271 -0.08987452 0.010012244 0.076291755 -0.08057529 0.049525008 0.084746316
-0.0045323847 0.02535672 -0.05135724 -0.0672261 -0.1077557 0.061007265 0.081992745 -0.018783435
-0.07028042 -0.042561006 -0.034577668 0.057619467 0.03155781 -0.012717357 -0.047980208 -0.053610634
0.04160811 0.103786066 0.045099054 -0.019039383 -0.0048276973 0.0076732067 -0.022716654 -0.10583177
-0.027496716 0.15791231 0.020997267 0.04841784 -0.001216099 0.03318198 0.03896452 -0.076872446
0.023104185 -0.089566074 -0.13635594 0.06403795 -0.006514082 -0.030119048 -0.082259536 0.03809157
-0.038023118 0.049788274 -0.034060977 -0.029025998 0.023768011 -0.048402946 0.08684117 0.098272085
-0.08455461 -0.08915883 -0.0123209385 0.05643286 -0.075750425 0.03727043 0.1012046 -0.09863605
-0.006488863 -0.005819046 0.0805741 -0.008609631 0.011196239 0.016327865 -0.15008119 0.031458836
0.06748491 -0.1190566 0.0921126 -0.025671512 -0.08063462 0.08704188 0.07311079 -0.10356444
0.038688324 -0.010961336 -0.019109039 0.14863577 -0.061146572 -0.071544096 0.0022852954 0.057669852
-0.04408427 0.030126443 -0.031117095 -0.06550093 0.017251138 0.0006295219 -0.03374576 -0.05532613
0.17507376 0.062873475 -0.055371158 0.10382355 -0.07319711 -0.030704759 0.071996704 0.05078592
-0.06662178 -0.002556181 -0.07587447 0.044534966 0.024981007 -0.09661483 -0.014812902 0.021284413
-0.0884274 0.038327664 0.042331666 -0.037030376 -0.10666786 0.010473007 0.049795754 -0.024584565
-0.04860319 -0.10716982 -0.031252798 0.0774475 0.024178186 0.099811845 -0.15731497 -0.08932024
00000000: 22e2 e6bc 097c 6d3d 3456 59bd 503a 5fbd
00000010: c127 3b3d 6224 503d 74bb f3bd 3979 b53d
00000020: 6dba bbbd 9e89 fb3d b6d0 9fbd f018 11bb
00000030: 9828 d23c 6d6f 173d 3ba9 a03c a5e2 423d
00000040: 0a04 853d 7b8c f03c ba35 87bd a675 943c
00000050: 43db 293e 613b 34bd 8681 a63d c62c e33d
00000060: c3db b43d f361 edbc dc96 653d 4151 1cbd
00000070: 6119 81bd 6013 7f3d 8519 203d 5ef9 d93d
00000080: 59d7 d63d 97b3 533d 1028 023d 0592 cabd
00000090: 3ccb 563c 66d6 333d 1ab2 adbb 4fa5 34bd
000000a0: 7bcb 1c3b 557a e1bd f426 37bd 6c06 16bd
000000b0: a898 9c3d 1855 31bd b106 80bd bf1d da3c
000000c0: 96e2 92bc 967b 023e 32fb ae3c 769e 113e
000000d0: 5ddb 453c fc65 d3bb 243a 803d fe2f c7bc
000000e0: 34d0 683d 9b50 d83c d82d c7bd ac2b c2bc
000000f0: eaa0 8d3d c1b1 67bd e186 7f3c 7eb6 953d
00000100: 92d7 0fbd ac0a 453c 3e9c 393d 7a98 283b
00000110: bed8 d1bd aa95 fbbc cf8f e53c 83e7 113d
00000120: 4684 3c3c 44de 1bbd 8ece 0cbd fc62 f83d
00000130: 7e26 123e b244 373c df21 75bd e0d8 2dbd
00000140: 817a b0bd 9953 c93d 6d9e 1e3d cc46 f3bd
00000150: f0e9 b4bd e302 bebd facc 51bd 20e3 133d
00000160: 1d7e 3a3d 5013 e4bc 6069 a83c 8a9c ddbd
00000170: 97ec 3f3b 7a32 70bc 8110 ed3d 08fa aabd
00000180: 5514 f5bd 21cd 4fbc d5b2 c0bc 3642 0cbc
00000190: 0aaa 3dbd 0bde af3d 9ae1 f5b9 84e1 003d
000001a0: 6911 e83d f61a 61bd 0e82 d13a d891 8bbd
000001b0: 8fef b53d ab36 30bc f358 0f3d 6746 34be
000001c0: b3df 6fbc 3f0f c33b 34ca 3abd 59dc 773d
000001d0: af63 b83d 46e3 01be 338f f8bd 8fa0 033e
000001e0: 7153 343d 4eef 9dbd 5fa3 4e3d 5bf5 8b3c
000001f0: a97e f23d cf4b 843b 2578 163d f209 803d
00000200: d370 04bd 5432 dfbd 2210 b8bd 650a 243c
00000210: da3e 9c3d a804 a5bd bcda 4a3d 7a8f ad3d
00000220: 6684 94bb e5b8 cf3c f85b 52bd d6ad 89bd
00000230: 05af dcbd c1e2 793d d0eb a73d b8df 99bc
00000240: 2eef 8fbd 7354 2ebd 50a1 0dbd 6402 6c3d
00000250: c342 013d 765c 50bc e586 44bd d396 5bbd
00000260: 446d 2a3d ca8d d43d c9b9 383d 7bf8 9bbc
00000270: a931 9ebb 866f fb3b 4718 babc 54be d8bd
00000280: cb40 e1bc c4b3 213e 7602 ac3c c951 463d
00000290: 8365 9fba d4e9 073d 4399 1f3d 4d6f 9dbd
000002a0: fd44 bd3c 6b6e b7bd e4a0 0bbe 5426 833d
000002b0: 1574 d5bb 39bc f6bc b077 a8bd e805 1c3d
000002c0: 21be 1bbd caee 4b3d 8683 0bbd eec7 edbc
000002d0: 22b5 c23c 2b42 46bd c9d9 b13d e042 c93d
000002e0: f82a adbd e898 b6bd c3dd 49bc 2526 673d
000002f0: 0a23 9bbd e1a8 183d 5b44 cf3d b301 cabd
00000300: 87a0 d4bb b2ad bebb 0904 a53d 690f 0dbc
00000310: 6e70 373c 04c2 853c e2ae 19be fbda 003d
00000320: 8735 8a3d f2d3 f3bd 88a5 bc3d 104d d2bc
00000330: c323 a5bd 0343 b23d 1cbb 953d 9819 d4bd
00000340: a677 1e3d 2d97 33bc 8f8a 9cbc fa33 183e
00000350: d474 7abd b685 92bd e5c4 153b 3937 6c3d
00000360: b591 34bd bbcb f63c 47e9 febc 5a25 86bd
00000370: 4252 8d3c 8006 253a fe38 0abd a79d 62bd
00000380: 8946 333e cfc3 803d decc 62bd 71a1 d43d
00000390: 5ee8 95bd 8c88 fbbc 0273 933d e604 503d
000003a0: 0071 88bd 9a85 27bb 1364 9bbd 4c6a 363d
000003b0: f8a4 cc3c ffdd c5bd d0b1 72bc a65c ae3c
000003c0: 6d19 b5bd 78fd 1c3d f863 2d3d 2aad 17bd
000003d0: ae74 dabd fa96 2b3c a2f6 4b3d 9265 c9bc
000003e0: 2314 47bd da7b dbbd ef02 00bd cb9c 9e3d
000003f0: 5511 c63c 276a cc3d 2d17 21be 88ed b6bd
