ML/code/wisata/model.tflite (tflite, 92488 bytes, 4 tensors)

recommender_net/embedding/embedding_lookup f4 [300, 50]
00000000: e245 a83b 4d4e 2cbd be6d 8a3a db3b a63d
00000010: a13e 9bbd d46e 1d3d 16a9 1dbc 697c 87bd
00000020: 3502 16be 3614 a43c 492d 0a3d 3470 9c3d
00000030: d591 cf3c fb9a 613d 6aad 7bbd 5158 ce3d
00000040: e114 43bc 9a95 883d beee 9cba c206 d03b
00000050: a2a7 dc3d d9b9 bbbd da69 47bd 519c 43bd
00000060: c949 aebd 8d6e f93b f5f5 2d3d 3410 9bbd
00000070: f65e dd3d 6262 aebc a641 fbbc 0d9b 52bb
00000080: 1f8a 2dbc 3702 58bd fc16 693d ce08 f33d
00000090: 1275 f13d cffa b03d 4fa5 bd3b 367c 83bd
000000a0: c2f2 843c 6996 ce3d 2257 ab3d fdc1 20bd
000000b0: bca8 183b 1d7a 64bd e35f 933d 21dd 683d
000000c0: b3d0 99bd 058f 75bd 6745 3bbd 7cce d53d
000000d0: d932 aa3c 3d39 8c3c dedf 9b3d 9823 04bd
000000e0: af95 b13d e9b6 c63d b3e2 a4bd d912 593d
000000f0: 2361 843d be58 25bd d797 4bbc d8af e03b
00000100: b437 16be 7ff5 373d be1b 69bd a78c 443d
00000110: 50af 04be 1bc8 653c 24a2 053d bff3 823d
00000120: d139 f6bd f7c7 6fbc 2055 aebd 425e 053e
00000130: c4d5 25bd 0edc b03c ef70 753d de71 c0bc
00000140: 0cf5 88bc ab1d c7bd 16ff 143d 29ce 6bbd
00000150: 2351 debd a3ba d43b 3770 1fbc 8f6a 063e
00000160: bb22 2dbd c100 a6bd 1192 31be 3e0a 53bd
00000170: 6280 683c e344 293d 3606 993d ad39 99bd
00000180: 552c c9ba 0f65 a7b9 5816 16be 73ac 8fbd
00000190: f378 c8bc ce99 f63d 1bc4 463d aec5 eabd
000001a0: 812c 843d 0324 b8bd ab3d 45be 8637 e0bd
000001b0: afc1 c33d a264 e43c b9ee 2d3b db4b a23d
000001c0: 70a1 0bbd 98d0 203e b93d d33d abcc b63d
000001d0: cc10 9b3c 4506 00be 6420 6bbd 0c1e e13c
000001e0: b4a9 243d c54d c6bd 3e33 e13d c96e 443b
000001f0: 288a 4abc 4909 6f3d 50ec 15be ff38 e4ba
00000200: 9b4a 9cbd 9548 bd3b 18d8 5a3d 9c3f 13be
00000210: 796e 8bbd 8a31 cabd b88f 013d 3051 883c
00000220: 516a c33d dbe2 05bd cfeb d5bb 84b7 c83c
00000230: 555f a7bd 6c99 293e 72dd 1e3c bfba 1ebd
00000240: b586 243d b18e c9bc 740d 8fbd f97a 44bd
00000250: c178 8b3d 3647 debd 322d 153d 4551 cb3d
00000260: b7b0 2dbd 2046 60bc b303 123e 3d25 89bd
00000270: 77fb e3bd 0aa8 47bd cd26 90bd e301 d93c
00000280: 55ca 00bc aa0d 793d 210f c13d 40f1 0abd
00000290: 6f08 913d 5436 b4bd b8a4 543d b190 3ebd
000002a0: 6920 843d ea1f 85bd 3321 1b3e fa0f 3337
000002b0: 3b42 0cbc f100 903d 16e8 bebd b315 ddbc
000002c0: ab4e 113e 434f 2b3d 0ca4 8c3d b738 f83d
000002d0: c255 b1bd 5587 a7bd 92da 7e3d fd6f 67bd
000002e0: 6435 d3bd 6e31 24bd 9a79 c53b a6c5 8c3a
000002f0: a750 b0bc fb06 a8bd 0099 ae3d e30f 3c3d
00000300: a616 c4bd 09d2 7abb 0aa4 f23d 854f 2cbe
00000310: eae1 fd3d 6227 983d 1e3f 88bd eb7b 663d
00000320: 58ca d13d 1ec6 7a3d 9e6d 053d a7e0 e1bd
00000330: a77c ca3d 2ab1 193d 7aea 9a3c 0aad febd
00000340: e70b fd3d c5c5 a33d 3416 5dbc b378 d9bc
00000350: 5b13 4abd e41d 98bc 2c3b c9bd 6fa4 55bd
00000360: 22b2 59bd 3869 643d 5541 223c 75d6 073e
00000370: 839f 6e3d d83d 7b3d 3c1c cbbd c6e4 dabc
00000380: 125d 90bc 48fb c1bc ba4e 4d3d 5792 8a3d
00000390: 71b3 063e e455 2fbb 487a c93d 2b67 e93c
000003a0: 8585 f2bd cba4 8abd 07e8 85bd 8b68 673d
000003b0: 0e2d 153e 6e6d 7bbc 3886 3a3e d730 403b
000003c0: 5d2d 75bd 42e7 bc3c 3943 7f3d 6727 223c
000003d0: a220 e33d 22a0 a4bd 1df1 9f3b ef8c 9dbd
000003e0: bc95 27bc b764 d83d 49a3 013e 7ec9 5bbd
000003f0: b264 ccbc ff9e 4a3d f4f0 dabd d82f f1bc
0.005135284 -0.04206686 0.001056127 0.08116885 -0.07580305 0.038435772 -0.009622833 -0.06615526
-0.1464928 0.020029169 0.033734594 0.076385885 0.025338093 0.05507944 -0.061444677 0.10075439
-0.011906833 0.06669159 -0.0011973006 0.006348462 0.10774161 -0.09166307 -0.048684932 -0.047756497
-0.08510167 0.0076120556 0.04247089 -0.0757145 0.10809128 -0.021287147 -0.030670952 -0.0032135874
-0.010592013 -0.052736487 0.056906685 0.11866914 0.117899075 0.08641588 0.0057875286 -0.06420176
0.016229037 0.10087282 0.08366229 -0.0392475 0.0023293933 -0.05578052 0.07196023 0.05685151
-0.07510509 -0.059950847 -0.045720484 0.104397744 0.0207762 0.017117137 0.07611059 -0.032260507
0.08671128 0.09702856 -0.08051052 0.05299649 0.0646384 -0.040367834 -0.012426338 0.0068568997
-0.14669687 0.044911858 -0.056911223 0.0479857 -0.12957501 0.01402476 0.032625332 0.06394147
-0.12022746 -0.014635078 -0.0851233 0.13024238 -0.040487066 0.021589305 0.059922155 -0.023491796
-0.01671841 -0.097224556 0.03637608 -0.057569657 -0.10855319 0.0064919754 -0.009731344 0.13126586
-0.04226945 -0.081056125 -0.17340876 -0.05152344 0.014190765 0.04132546 0.07471888 -0.07481704
-0.0015348295 -0.00031928017 -0.14656961 -0.07015314 -0.024471736 0.12041055 0.048526864 -0.11463486
0.06453801 -0.08991244 -0.19261806 -0.1094809 0.095584266 0.027880017 0.0026539995 0.079246245
-0.034089506 0.15704572 0.10314507 0.08925756 0.018928908 -0.12502392 -0.057403937 0.027480148
0.040200904 -0.09682802 0.10996102 0.002997326 -0.012362041 0.058358464 -0.14640927 -0.0017412006
-0.07631417 0.0057764747 0.05342874 -0.14379734 -0.0680818 -0.0987273 0.0316312 0.016640276
0.095417626 -0.03268705 -0.0065283547 0.02450157 -0.0817248 0.16562432 0.009696351 -0.038752314
0.04016753 -0.024604173 -0.06984988 -0.04796884 0.06810141 -0.10853426 0.036420055 0.0992761
-0.042404857 -0.013688594 0.14259224 -0.06696556 -0.111319475 -0.04874424 -0.07038651 0.026490157
-0.00786074 0.060804047 0.09426714 -0.03392148 0.07081687 -0.08799425 0.0519149 -0.046524707
0.06451494 -0.06500228 0.15149383 1.0672951e-05 -0.008560712 0.070314296 -0.09321611 -0.026987886
0.14190166 0.041823637 0.06867227 0.121201925 -0.08658935 -0.081801094 0.062220164 -0.056503285
-0.10312918 -0.040086202 0.006026459 0.0010740056 -0.021522833 -0.082044564 0.08525276 0.04591359
-0.09574632 -0.0038272163 0.11847694 -0.1682721 0.12396605 0.07429387 -0.06652664 0.05627052
0.10243672 0.061224096 0.032575242 -0.11029177 0.09887057 0.037522472 0.018910635 -0.12435348
0.12355786 0.07996706 -0.013494063 -0.026546812 -0.049334865 -0.01856894 -0.09825739 -0.05215877
-0.053148396 0.055764407 0.009903272 0.13265403 0.05825759 0.061338276 -0.09917495 -0.026720416
-0.017622504 -0.02367939 0.050123908 0.06766193 0.13154389 -0.0026754076 0.098377764 0.028491577
-0.11841873 -0.06769713 -0.06538396 0.056496184 0.14567968 -0.015345914 0.18215263 0.0029325986
-0.059857715 0.023059491 0.062319968 0.00989709 0.110902086 -0.080383554 0.004881038 -0.076928966
-0.010228571 0.10566085 0.12659945 -0.053658955 -0.024950359 0.049468037 -0.106904894 -0.029441759

recommender_net/embedding_3/embedding_lookup f4 [126, 1]
00000000: 8481 c6be 6b8a 273e d495 933c 8b98 90bd
00000010: 2a70 59be 0546 e73d 7270 8d3e 2e59 f53d
00000020: beef c4be acf4 a83e d4ea 823e 31d8 50be
00000030: cc02 e23e 174d 8a3e ed8b 07bd 1c44 11bd
00000040: 06f2 8cbe 2386 a5bd 9a8d 5bbd b85e 0ebf
00000050: 8465 8dbd 8343 b93c c824 c6bd 42f9 673e
00000060: c232 25be beac 933c a9b2 cbbd f6ff 0e3f
00000070: 36b4 84bd 9c3d 69be 28eb 673e 3fa2 883d
00000080: cf9e cc3e 28d2 adbd be72 9abe a9ae 06be
00000090: eac6 243c cda0 793e 98cd dc3c 5828 b9be
000000a0: 963f 9b3e 7351 b73c 74df 89bc 1405 0abd
000000b0: 75f0 f73c 0ca8 55bc e5de bf3d 6226 843e
000000c0: 3e6e 27be 3e64 8e3e d1e3 86bd af84 583e
000000d0: c92b 7c3c 06f2 563e df2b d73e 2763 b73b
000000e0: b2c8 f33c b961 e93d 1479 2f3e a47a d1bd
000000f0: f825 0cbe 0c51 523e e8f4 32be 78cf 4c3c
00000100: 081b 86bd de10 5ebd 3ca5 e6bd 87b7 a6be
00000110: c29c a3bc 973e 313e c64a 2b3d 6763 073e
00000120: 6fac ce3e 62ed 5ebe aa75 b1bd 41fa 453e
00000130: 16dd ca3d 2b86 29be 1c54 95be 7b44 ac3e
00000140: a432 cfbd 9d11 54bc f80f 063e b77d 35be
00000150: 2435 fd3d d66d 193d 73e7 923d 2738 4e3e
00000160: c1ab 6dbe 0a9b a9be 5255 f7bd 0a1d 733e
00000170: 978e 163d da87 673e 27a7 5dbd 1913 1e3d
00000180: 34ca d9be effd 013d 0973 853e 6a4f abbe
00000190: 76ba 16be 495a 35bc ce53 8bbe 490d 4bbe
000001a0: fcdf 5f3e 31cd 8abd a44d a6bd d39f b93c
000001b0: 6222 50ba 4a84 413e 40d5 a2bd b514 543e
000001c0: 8915 05be b2fc 3dbe 9d8e 0a3e c039 4b3c
000001d0: 7aa8 bbbc eb87 353e ce1c 5dbe 8e61 463d
000001e0: a241 f43c 2325 0c3c 74a6 23be 1a08 853e
000001f0: 808f 02bf 1e75 ae3d
-0.38770688 0.16361396 0.01801578 -0.07060345 -0.21234193 0.11292652 0.2762485 0.119799
-0.3846416 0.3299917 0.25569785 -0.2039497 0.4414276 0.2701194 -0.033092428 -0.035465345
-0.275284 -0.08082225 -0.05360184 -0.5561328 -0.06904128 0.0226152 -0.09674984 0.22653678
-0.16132644 0.018026706 -0.09946186 0.55859315 -0.06479685 -0.22777408 0.22648299 0.06671571
0.3996491 -0.0848735 -0.30165666 -0.13152565 0.01005719 0.24377747 0.026953503 -0.36163592
0.3032195 0.022377705 -0.016830184 -0.03369625 0.030266026 -0.013040554 0.09368686 0.25810534
-0.16350648 0.27810854 -0.06586421 0.21144365 0.015391299 0.20990762 0.42025658 0.0055965367
0.029758785 0.11395592 0.17136031 -0.1022847 -0.13686359 0.2053873 -0.17476237 0.012500636
-0.065481246 -0.054215305 -0.11261985 -0.32561895 -0.019972209 0.17309032 0.041819356 0.13221513
0.4036593 -0.21770242 -0.08665021 0.19333746 0.0990545 -0.16555087 -0.29165733 0.33645996
-0.10117081 -0.012943652 0.13092029 -0.17723738 0.123636514 0.037458263 0.07173052 0.20138608
-0.2321005 -0.33126098 -0.120768204 0.23741546 0.036757078 0.22610417 -0.054114487 0.03859243
-0.4253708 0.03173631 0.26064327 -0.33459026 -0.14719567 -0.011068889 -0.27212375 -0.19829287
0.21862787 -0.067774184 -0.081202775 0.022659218 -0.0007939694 0.1889812 -0.079508305 0.20711024
-0.12996496 -0.18553427 0.13530965 0.012403905 -0.022907484 0.1772763 -0.2159302 0.04843288
0.029816452 0.008553776 -0.15981466 0.25982744 -0.51000214 0.08518432

recommender_net/embedding_2/embedding_lookup f4 [126, 50]
00000000: a439 84bd 27df eabd 06cc c1bd ceec f43d
00000010: f352 8fbd 5f8f 48bb a4ac e4bc 370e c4bb
00000020: 3262 23be ca2c 80bd d210 043e c123 8fbd
00000030: 34c2 2b3d 416d 21be e4eb 433e c5fc 76bd
00000040: eeaa 02be b752 b2bd 50ca 67bd f3a6 9ebd
00000050: 3fc7 513e de5c dfbd 81b0 c73d 6cd2 56bd
00000060: f22f 28bc b70a a8bd 2614 00bd d621 343d
00000070: 0e6a d2bd 0849 683e 5988 3cbc 80d0 2bbe
00000080: 685a a73d 645b ddbd 6ac6 31bd 1c4b e53d
00000090: ec8b b9bd 5bbd 1f3e 82b4 8e3d f37a dabd
000000a0: 5083 9d3c 60f4 8fbd 8a07 963d 57f2 4bbc
000000b0: 7b27 4e3e 0099 1a3e 6873 a93d 1f7e 903d
000000c0: bc67 cf3b 87b0 27bd ff3d b93b 6110 fdbd
000000d0: 4cf1 03be 55de ab3d 8649 543e 68b4 a4bd
000000e0: fbb9 a43b 0ecf 383a 5602 10bd cbc7 5ebe
000000f0: 4e6b 6f3c 05ad fbbd 1822 423d 5ada dcbc
00000100: 4dd0 d7bc 0e87 2a3d a464 f8bd 34bb 2cbd
00000110: 3d52 1abe 192f cfbd 58b0 37be 700f 50be
00000120: 33c6 56bd 94ff 913c 6c25 e03b 5b36 95bd
00000130: da88 e43d 5022 833e 2a00 ebbc 9ab9 82bd
00000140: 715c 1bbe acba 353e c6f4 5e3d 89e1 06be
00000150: 2d81 413e d265 8fbd df55 763e 0dc8 aebd
00000160: 3fd4 2d3e 0076 0abd a0f3 0cbe 7a4b 15be
00000170: 3824 64bd 73b6 c13d 02e2 41bd 2f40 66bd
00000180: 6a63 3dbe 8fbd 14be fffe 05be 55ba 3bbc
00000190: 9478 27be d139 93bc 4dcb ecbc 960c 07bd
000001a0: 2e95 aebd c0a4 c0bd 060e 37bd cfa8 183e
000001b0: be4b 183d cf00 fe3c 06b5 483b 9b43 babc
000001c0: e6c2 ddbd df3f c33d d329 b43d 16f9 14be
000001d0: 7b30 be39 c66e 40bd fa0b a03d 9b42 15bd
000001e0: 0b3c 6bbd 32bb 86bb b02d b53c e72b 2a3e
000001f0: 70a3 043d 49c0 c83c 9f07 4ebd 1e6a 163d
00000200: f174 b1bc 0fd2 9ebd 6908 73bb 9e96 b73c
00000210: 50f9 07bd 2ac1 31be 3bbd 02be c5b5 fe3a
00000220: e427 7d3e 53fe 833d e7fc 1a3e 4e20 143e
00000230: 048d 3abe 8084 77be e1b2 b33d 221b 163e
00000240: b984 233e 8972 a33d 8b7c 663d 5c73 5bbe
00000250: 1967 803d 7910 0bbd c144 323e c6de 0ebc
00000260: 39ef 77bc c64c 86bd 57dc 343e 81b8 d33d
00000270: 46a8 d4bc c04f 62be 3e90 843e 9c80 abbd
00000280: c081 3bbe 74db 263d f290 d43d 063f fb3d
00000290: d544 01be 7068 273e d934 2ebd 522b 9ebd
000002a0: f8ad 8c3e 81b8 62bd 0816 01be 4b77 833c
000002b0: ce41 983d f197 293e 2419 973d 6da0 613e
000002c0: 9680 643e 2392 1ebe 6b93 13bd da0b ccbd
000002d0: a420 05bd 7f2d c6bd 3c48 723d 16f5 27be
000002e0: b603 4a3d 1ebc 5abc e787 92bd ae3a 3f3e
000002f0: 3ef7 7f3d 9d1f fa3d 0d61 263c 88ea 03be
00000300: 7ed2 dfbd 93c5 06be ebeb af3c e372 b9bc
00000310: a9df 4bbd 0917 3a3e 0e2d 993d f033 5d3d
00000320: f19e 083e 30b0 9c3c 6016 b53d c3d1 4bbe
00000330: d125 203d 43c8 14be 8d3f 4b3e 8990 32be
00000340: 8b45 8bbc 4cfc 66be 0caa 033e a643 ffbd
00000350: c294 d23d e841 ed3b 4ad5 3e3e 9f20 7c3c
00000360: b2cf df3d 4cd2 813d 5d67 013d c30d afbd
00000370: 49d7 333c ca32 873e ecc5 2b3d d053 68be
00000380: ec15 b63d 4656 27be 7f10 cebd ee82 0e3d
00000390: e963 f03c baa7 3bbd e4ea 3d3d 38fd 20bd
000003a0: 3f76 163e 02d3 36be 179a 0ebd 3639 f8bd
000003b0: 5742 e93d 62f8 babc 302d 2c3e 1b2d 8dbc
000003c0: b3c5 cb3c 41b5 5abd ee68 c13d 8fbc 04be
000003d0: 6bdb 8e3a 0d36 553e 4c6d 08bd 8d83 a93a
000003e0: a991 b2bd 9e4d c43d 87c5 dc3c 9fed f5bd
000003f0: f258 073e a1d6 d43d 0075 94b8 8a14 aa3d
-0.064563066 -0.11468344 -0.094627425 0.119592294 -0.06998243 -0.0030603034 -0.027914353 -0.00598314
-0.15955427 -0.06258543 0.12897041 -0.069892414 0.041933253 -0.15764333 0.19132954 -0.060299654
-0.12760517 -0.08707183 -0.056589425 -0.07746687 0.20486163 -0.10906385 0.09750462 -0.052446768
-0.010265337 -0.08205169 -0.031269215 0.04397758 -0.102741346 0.22684109 -0.011507117 -0.16778755
0.081715405 -0.10808447 -0.043402113 0.111959666 -0.09059891 0.15599577 0.06968023 -0.10667982
0.019227654 -0.07029033 0.07325657 -0.012447915 0.20132248 0.15097427 0.08273965 0.07055306
0.006329505 -0.040939834 0.0056531425 -0.1235664 -0.12885016 0.08392016 0.20731172 -0.08042222
0.0050270534 0.00070498965 -0.035158478 -0.21755902 0.014612986 -0.1228886 0.047395796 -0.026959587
-0.026344443 0.041632704 -0.12128571 -0.04217072 -0.15070434 -0.10116405 -0.17938364 -0.20318389
-0.05243511 0.017822064 0.0068403985 -0.07285758 0.11158915 0.25612116 -0.028686602 -0.06383057
-0.15171982 0.17746991 0.054432653 -0.13171972 0.18896933 -0.070018426 0.24056195 -0.085342504
0.16975497 -0.03380394 -0.1376481 -0.14579573 -0.055698603 0.094586276 -0.04733468 -0.056213554
-0.18494955 -0.14525436 -0.13085555 -0.011457999 -0.1635459 -0.017971905 -0.028905535 -0.032970987
-0.085245475 -0.094064236 -0.04469111 0.14908145 0.03718161 0.031006245 0.0030625477 -0.022737315
-0.108281896 0.09533667 0.0879704 -0.14548144 0.00036275745 -0.04698064 0.07814784 -0.036440473
-0.05743031 -0.004111671 0.022116512 0.1661831 0.03238243 0.024505751 -0.050300237 0.036722295
-0.021662207 -0.07754909 -0.003708387 0.022410687 -0.033196747 -0.17358842 -0.12767498 0.0019432834
0.24722248 0.06444993 0.15135537 0.14465448 -0.18217856 -0.24171638 0.08774353 0.14658788
0.15968598 0.0798083 0.056271117 -0.21430725 0.06269664 -0.033951256 0.1740904 -0.0087201055
-0.015132719 -0.06557612 0.17662178 0.10337926 -0.025959145 -0.22100735 0.25891298 -0.0837414
-0.18311214 0.04073663 0.103792086 0.1226788 -0.12623914 0.16348433 -0.04253087 -0.077231064
0.27476478 -0.055351738 -0.1260606 0.016048094 0.07434426 0.16561867 0.07377842 0.22033854
0.22314677 -0.15485434 -0.03602926 -0.09963198 -0.03250183 -0.096766464 0.05915092 -0.16402087
0.049319945 -0.013350515 -0.071548276 0.18674728 0.062491648 0.12213061 0.010154975 -0.12882435
-0.1092882 -0.13161306 0.0214748 -0.02263779 -0.049773846 0.1817285 0.074792966 0.05400461
0.13341881 0.019126981 0.08842158 -0.19904236 0.039098565 -0.14529519 0.19848461 -0.17437948
-0.017000934 -0.22557181 0.12857836 -0.12464075 0.102822796 0.0072405227 0.18636051 0.015388637
0.109282866 0.06338939 0.031592716 -0.08547547 0.010976621 0.26405936 0.0419368 -0.22688222
0.088909 -0.16341504 -0.1006174 0.034792833 0.029344516 -0.045814253 0.046366587 -0.03930399
0.14693545 -0.1785393 -0.03481492 -0.12120287 0.113896064 -0.022823516 0.16814113 -0.017233422
0.024874544 -0.053395513 0.09443842 -0.12962554 0.0010899132 0.208214 -0.03330736 0.0012932882
-0.08719189 0.09585117 0.026949657 -0.12008213 0.13217524 0.103925 -7.078983e-05 0.08304699

recommender_net/embedding_1/embedding_lookup f4 [300, 1]
00000000: 87e2 87be 6883 1b3f 2ffc 323e f9f0 d73e
00000010: 7da4 cf3e d4a4 5e3e 5fae 83bd 17d5 11bf
00000020: 5da0 d1bb d05e 6e3e 7294 adbe 99de 1bbe
00000030: 40b5 2abd f144 17be 26ca a03e 0dce 43bd
00000040: c663 0bbe 45da 94bc dd24 fd3d b889 8f3e
00000050: 1f93 d33d 94aa b93d c331 4ebd 6767 ecbe
00000060: 3d2d 7cbe bada e93e 90a7 363e bc0d b23e
00000070: ef2f aa3d ced4 a9be 15c4 e5bd 9b8b babd
00000080: 9766 b0be a1b3 0d3d d9c5 a9be 917a c73e
00000090: b7bf 603d 24cf 623e 647f 083b 5e23 463c
000000a0: 3dd7 113e 02dd b43c 2b40 dbbc 3993 80be
000000b0: 8be7 53bc 77a4 00be 2c83 593e 8105 613e
000000c0: 9514 99be 9f33 143e 2ad5 0ebf 2a20 353c
000000d0: ba3e af3d 1153 90bd 6a7d 2abe 8337 8e3d
000000e0: 0f0c d83d 3526 0f3e 05a7 8bbe b665 9a3c
000000f0: ae4b 223d 7bf1 803e eb35 023f 1e2b 57bd
00000100: 2156 e93d 51b4 ca3e cbbb 953e 0ea8 3bbc
00000110: e8f6 943e 9b13 d2bd 559f a3be cde4 a53d
00000120: ad14 9e3e 4f84 94bd 46f1 283e 79dc 56bd
00000130: 63a7 d03e c00a 9dbe db1a eebb c2b4 99bb
00000140: 776d 6cbe f47c b13e 6a06 9abd 68bd 453e
00000150: 30eb 473e 3abe 673e 3409 293e 74cc b13e
00000160: 97f1 3c3e 4cf6 2fbe fbdc cc3d f801 7dbe
00000170: 561a 80be 24c1 d4be 6128 383d 518d f4be
00000180: a06a c8be 3536 c5be 120e 543e 3816 1b3e
00000190: 4345 9fbc d246 37be 12fa cabd 6333 b0bd
000001a0: 6f78 a73e 6bf4 1f3d 10f9 50be a5d0 ef3e
000001b0: 570c 37bd 5272 e6be 9c76 a43d c1e3 85be
000001c0: 5b0c 503e 0231 6ebe 51ec e9bd ef5d 663e
000001d0: 0322 f13c 2803 40bc 7d35 08bf eb08 353e
000001e0: 75c6 983d 226a 5d3e b696 c0be 02ff 403d
000001f0: 169c 7e3e 588b 92be ba51 02be dfc4 783c
00000200: a0d7 243d 87e2 ef3d 3fd4 5e3d fe79 9fbd
00000210: 88b0 bcbe f79c e5be 3714 0bbf a35b c43e
00000220: 1072 863e 4799 57bd 971d 313e b661 8abe
00000230: 0770 0e3e 1db0 f53d 5744 cf3e fbce e33e
00000240: f0eb 9b3e 5753 a4be 7c32 99bc f1aa 7bbd
00000250: b6db 863d 7c34 dfbc 8c17 5a3e 1a3d 18be
00000260: 3f09 55bd aeb1 0c3e 4a74 9a3e 4fa1 843e
00000270: 5bfa 093e 89bd c13e c181 9f3c 04d6 15be
00000280: 9aec f93d 0c51 babd 78c0 7bbd 3091 fcbe
00000290: 691f 043e f271 f93d 48c3 1ebe 8174 84bd
000002a0: fc69 943d d9a7 d3be e37e bcbe a33a 9ebe
000002b0: 6b0b 84bd 55ae dd3e 64e8 4a3e 5d89 6f3e
000002c0: 7042 27bf b669 623d f8e6 123e a480 cd3e
000002d0: d1f4 0c3e 5c05 35be 4028 15be e37a d0be
000002e0: f904 1dbe 79a1 e03e 0ae1 603e b270 bc3e
000002f0: bcfe c7bc dc3f 813d 847e 0e3e e775 a4be
00000300: 4970 723e b72f a4be 708f 8fbe 6036 a43c
00000310: c4d3 88be 8b04 b63e 25d5 743e 28f4 a0b9
00000320: e5eb 643d 2590 dd3c f619 ca3e 30cd f83d
00000330: 76f8 65be 92f3 d83e bd86 d63d 7767 623e
00000340: e3b8 cabe be9d b73d a2ae 1dbf 8a86 02be
00000350: dcec a73a 6c22 a03d baef ab3e 1e0c e8be
00000360: 3623 a9bd fff5 23be 474c 85be e1e3 043f
00000370: b941 c9be 4938 0ebe aa37 24be bea4 043f
00000380: 40e0 783d c1cf 933d 5e9c 0d3a 40dc 293e
00000390: 2cf5 a03d cbe7 18bd 5a2d 0c3f e57b 883e
000003a0: e041 a3bc cd75 6e3c 2735 b33d 1017 803e
000003b0: cca5 de3e 32b3 76be 00d6 e3be cd95 36be
000003c0: ae63 87be 644a 59be 3396 6cbe 461e 8b3e
000003d0: f367 2a3f 8242 43bc 64ed 6fbd fa1b d7be
000003e0: a1ae 843e eacc cbbd f6e2 13bf 9d32 d7bc
000003f0: 02de a33d 7b24 bb3d 5d74 a8bd 643b 143f
-0.26540014 0.60747385 0.17479013 0.42176035 0.40555182 0.21742564 -0.06429743 -0.56965774
-0.0063972906 0.23278356 -0.33902317 -0.15221633 -0.04167676 -0.14772393 0.31404227 -0.047803927
-0.1361228 -0.018170485 0.12360547 0.2803476 0.103307955 0.09065738 -0.050340425 -0.4617264
-0.24626632 0.45674688 0.17837358 0.34776103 0.08309924 -0.3317017 -0.1121904 -0.09108659
-0.3445327 0.034595136 -0.33158758 0.38960698 0.054870334 0.2214933 0.0020827884 0.012093393
0.14242263 0.022078041 -0.026763996 -0.25112322 -0.012933622 -0.12562738 0.21241444 0.21974756
-0.29898515 0.14472817 -0.5579401 0.011055032 0.08556886 -0.07047094 -0.16649404 0.06944182
0.10549175 0.13979419 -0.27275863 0.018847328 0.039622955 0.25184235 0.5086352 -0.052531354
0.11393381 0.39590696 0.29244837 -0.011453642 0.29094625 -0.10257646 -0.31957498 0.08100281
0.3087515 -0.07251798 0.16498289 -0.052456353 0.40752706 -0.30672264 -0.007266385 -0.0046907375
-0.23088633 0.34665644 -0.07520755 0.19310534 0.1952331 0.2263116 0.16507417 0.34726298
0.18451534 -0.17183799 0.10003086 -0.24707782 -0.25020093 -0.41553605 0.044960383 -0.47764066
-0.39143848 -0.3851792 0.20708492 0.15145195 -0.019442206 -0.1789811 -0.099109784 -0.08603551
0.3270907 0.039051455 -0.2040751 0.4683887 -0.044689503 -0.45009094 0.080304354 -0.26150325
0.20317213 -0.23260882 -0.11422027 0.2249677 0.029435163 -0.0117195025 -0.53206617 0.17679183
0.07459728 0.21622518 -0.37614983 0.047118194 0.2486423 -0.28621936 -0.12726489 0.0151836565
0.0402447 0.117131285 0.054401632 -0.0778694 -0.36853433 -0.44846317 -0.5432772 0.38351163
0.26258898 -0.05263641 0.17296444 -0.27027673 0.13909923 0.119964816 0.40481827 0.4449385
0.30453444 -0.32094833 -0.01870083 -0.06144232 0.06584875 -0.027246706 0.21298045 -0.14867058
-0.05201077 0.13739654 0.30166847 0.2590432 0.1347441 0.37839916 0.019471051 -0.14632422
0.12203331 -0.0909749 -0.06146285 -0.4932952 0.12902607 0.121799365 -0.15504181 -0.06467534
0.072467774 -0.41338995 -0.36815557 -0.3090411 -0.0644749 0.43297067 0.19815212 0.23392244
-0.6533575 0.055276595 0.1434592 0.40137208 0.13765265 -0.17677826 -0.14566135 -0.40718755
-0.15333928 0.43873194 0.21960846 0.3680473 -0.024413459 0.06311008 0.1391545 -0.32121202
0.23675646 -0.32067654 -0.28039122 0.02004546 -0.26724064 0.3555034 0.23909433 -0.0003069949
0.05588903 0.027046273 0.39472932 0.121485114 -0.22458062 0.4237333 0.10474918 0.22109781
-0.39594182 0.08965634 -0.61594594 -0.12746635 0.0012811678 0.078190655 0.33581334 -0.45321745
-0.08258669 -0.16011809 -0.26034757 0.51910216 -0.39307955 -0.13888659 -0.16036859 0.51813877
0.060760736 0.0721736 0.00054020237 0.16587925 0.07859263 -0.03733043 0.547567 0.26657024
-0.019928873 0.014554453 0.087503724 0.25017595 0.43485868 -0.24091795 -0.44499207 -0.17830582
-0.26443237 -0.21219784 -0.23104171 0.27171534 0.66564864 -0.011917712 -0.058576003 -0.42013532
0.2591448 -0.09951194 -0.5776819 -0.026269251 0.08001329 0.091378175 -0.082253195 0.5790312
