ML/code/wisata/model.tflite (tflite, 91876 bytes, 4 tensors)

recommender_net/embedding/embedding_lookup f4 [300, 50]
-0.13508244 -0.06472596 0.011717198 0.05120751 -0.10040291 -0.14005476 -0.056065127 -0.08531785
0.035156023 -0.05027812 -0.00032873257 0.07412904 -0.09810469 -0.0023953805 -0.10461325 7.747149e-05
-0.08205945 0.08684064 -0.018387826 0.046978142 0.028408304 -0.021919653 -0.046901934 0.059870392
-0.0061668623 -0.0047258656 -0.0715163 0.11950829 -0.039059907 0.03870594 -0.047520913 0.048430454
0.0064299386 -0.06461263 -0.044690534 0.04393924 -0.0033000757 0.14249034 0.11360756 -0.018897641
-0.01265272 0.03142962 -0.0452968 0.04915223 0.11543497 -0.020480754 0.1257823 -0.12346963
0.12230943 0.03904079 -0.08126501 0.06199681 0.011500556 -0.17823981 -0.11556623 0.13914846
0.16323754 -0.045121126 -0.12696831 0.1308324 0.035863437 -0.11538192 -0.013662759 -0.11222668
-0.012859743 -0.021473622 -0.00045849115 0.040827874 0.01634217 0.03733687 0.09202324 0.08649015
0.040111817 -0.026979698 -0.041565187 -0.1297172 0.034285907 0.039379478 -0.13454634 -0.063931674
-0.102980025 0.071534 0.14944305 -0.047208373 -0.07671285 -0.027242431 0.012688881 0.047800403
0.1111791 0.043384194 0.01484789 -0.15612005 0.080080576 -0.04168594 0.071013644 -0.042781044
0.12116807 0.19453803 0.1614028 -0.02179819 0.051743206 0.14125785 0.041160595 0.046665467
-0.027715825 -0.053125534 -0.123253055 -0.0324008 0.067288704 0.014333441 -0.11331739 0.073781654
0.039673347 0.06313649 0.0053548235 0.0760067 0.11285204 0.09973758 0.10094275 -0.19838677
-0.029045818 -0.09290113 0.05474925 0.06302229 0.12520449 -0.19341362 0.10942236 0.022085417
0.08966716 -0.097270556 -0.12666124 0.025520232 0.01602465 -0.052668903 0.026557874 -0.0018860563
-0.015080293 -0.00034079206 0.11185061 0.14872651 0.054071594 -0.114063874 -0.02138857 0.09335346
0.07613799 -0.06617163 -0.058476172 -0.044070013 -0.00094900065 -0.0208358 0.11462091 0.041478317
-0.025347188 -0.006690778 0.15543778 0.13312711 0.005122892 0.015318157 0.07473781 -0.03641304
0.020082414 -0.023337794 -0.14542395 0.071383946 -0.042253315 0.10234966 0.16962987 -0.03546237
0.18957204 0.15695558 -0.06811425 -0.07338355 -0.13678259 0.018959867 0.050005686 0.031576388
0.0937585 -0.06696383 -0.0019835152 0.066890225 -0.0062811184 0.020439742 0.024695994 -0.04246217
0.07996979 -0.027228883 -0.033009753 0.06830589 -0.030032631 0.12313191 -0.061563738 -0.029316816
0.0033741633 -0.035048284 0.043248627 0.0035076938 -0.08425127 -0.024765525 0.13040996 -0.11705694
-0.0664148 -0.08179566 0.13604903 0.053710785 -0.0015828378 0.03337419 -0.0722995 0.08192104
0.09291257 0.008845612 -0.14739288 -0.050531767 -0.07559529 -0.025105678 0.05702127 0.017522316
-0.068120465 -0.030733794 -0.039114922 0.0694596 -0.03657587 -0.094611615 -0.05988125 -0.15638766
0.0604729 -0.09302203 -0.050574426 0.06374266 0.12445888 -0.05107345 0.13880579 -0.11463225
0.042203832 -0.041098416 -0.03357081 -0.03395275 -0.091634095 -0.035018943 -0.10786725 0.14864072
0.011919652 0.00048483437 -0.016616387 0.022063304 -0.022851102 -0.019680787 0.050679937 0.11083192
0.030124215 0.040661324 -0.010539004 -0.0990474 0.028296815 0.028772423 -0.049224976 0.037816696
00000000: 0d53 0abe 0b8f 84bd 7ef9 3f3c f7be 513d
00000010: 0aa0 cdbd 846a 0fbe 8ca4 65bd 20bb aebd
00000020: c3ff 0f3d 6ef0 4dbd bd59 acb9 f7d0 973d
00000030: 1deb c8bd d1fb 1cbb 793f d6bd 3178 a238
00000040: c90e a8bd 81d9 b13d 11a2 96bc 276c 403d
00000050: 88b8 e83c d890 b3bc 3e1c 40bd a83a 753d
00000060: 6413 cabb 6fdb 9abb 2377 92bd c3c0 f43d
00000070: 48fd 1fbd 1f8a 1e3d 4aa5 42bd 035f 463d
00000080: 3cb2 d23b a053 84bd 6c0d 37bd a2f9 333d
00000090: 1546 58bb fde8 113e 15ab e83d 3acf 9abc
000000a0: 5b4d 4fbc 58bc 003d 2389 39bd d953 493d
000000b0: 2b69 ec3d 41c7 a7bc 13cd 003e a5dd fcbd
000000c0: 5e7d fa3d 3ce9 1f3d 456e a6bd 5ef0 7d3d
000000d0: d46c 3c3c 7f84 36be fdad ecbd ef7c 0e3e
000000e0: be27 273e eed0 38bd fb03 02be eef8 053e
000000f0: 8ae5 123d 5b4d ecbd c4d9 5fbc 1ad7 e5bd
00000100: acb1 52bc 73e9 afbc a461 f0b9 213b 273d
00000110: 04e0 853c 8cee 183d ae76 bc3d bf21 b13d
00000120: 4a4c 243d 8704 ddbc 4240 2abd 96d4 04be
00000130: 616f 0c3d 604c 213d 84c6 09be 9cee 82bd
00000140: 31e7 d2bd 6b80 923d 9907 193e 915d 41bd
00000150: a01b 9dbd 852b dfbc 06e5 4f3c 5bca 433d
00000160: deb1 e33d a0b3 313d 9044 733c efdd 1fbe
00000170: 4901 a43d e0be 2abd 9a6f 913d 2d3b 2fbd
00000180: f726 f83d fa34 473e c746 253e 1e92 b2bc
00000190: aff0 533d e6a5 103e 0398 283d 4a24 3f3d
000001a0: 4c0c e3bc 299a 59bd 196c fcbd b4b6 04bd
000001b0: a9ce 893d cfd6 6a3c f312 e8bd d61a 973d
000001c0: 8580 223d b44d 813d 8477 af3b 67a9 9b3d
000001d0: f81e e73d 3743 cc3d 13bb ce3d e725 4bbe
000001e0: 7ff1 edbc f342 bebd c040 603d d511 813d
000001f0: 9b35 003e 380e 46be d518 e03d 7aec b43c
00000200: 6aa3 b73d c935 c7bd 7cb3 01be ce0f d13c
00000210: 2046 833c 59bb 57bd e68f d93c 8c35 f7ba
00000220: 5513 77bc 56ac b2b9 ef11 e53d c34b 183e
00000230: 2d7a 5d3d 529a e9bd 1537 afbc 1930 bf3d
00000240: 3cee 9b3d fe84 87bd b684 6fbd c282 34bd
00000250: 5bc6 78ba d7af aabc 5ebe ea3d 2be5 293d
00000260: e8a4 cfbc 503e dbbb 152b 1f3e 7952 083e
00000270: efdd a73b 02f9 7a3c 2310 993d d725 15bd
00000280: e083 a43c e72e bfbc 04ea 14be bf31 923d
00000290: d011 2dbd b39c d13d 74b3 2d3e fd40 11bd
000002a0: 2c1f 423e f7b8 203e 7c7f 8bbd 1d4a 96bd
000002b0: bc10 0cbe b951 9b3c c3d2 4c3d 3e56 013d
000002c0: 7504 c03d 5524 89bd ddfd 01bb befd 883d
000002d0: d7d1 cdbb 3f71 a73c 414f ca3c d0ec 2dbd
000002e0: 34c7 a33d 1b0f dfbc 3c35 07bd f5e3 8b3d
000002f0: fe06 f6bc 952c fc3d 422a 7cbd d229 f0bc
00000300: 1121 5d3b ca8e 0fbd 7925 313d 56e1 653b
00000310: ee8b acbd 12e1 cabc 308a 053e 8dbb efbd
00000320: 7c04 88bd 7c84 a7bd 7050 0b3e d7ff 5b3d
00000330: 3977 cfba 60b3 083d c311 94bd 38c6 a73d
00000340: f248 be3d 30ed 103c 29ee 16be 66fa 4ebd
00000350: b4d1 9abd 6caa cdbc 238f 693d f68a 8f3c
00000360: be82 8bbd 70c5 fbbc f836 20bd d640 8e3d
00000370: 94d0 15bd bcc3 c1bd 0b46 75bd 1624 20be
00000380: 6eb2 773d 5682 bebd 2127 4fbd 838b 823d
00000390: 4ce4 fe3d 6532 51bd 1b23 0e3e 50c4 eabd
000003a0: eddd 2c3d d056 28bd 8c81 09bd 0a12 0bbd
000003b0: a8aa bbbd 0670 0fbd 81e9 dcbd 4635 183e
000003c0: a54a 433c 5e31 fe39 171f 88bc 1abe b43c
000003d0: 3c32 bbbc 9a39 a1bc c495 4f3d d8fb e23d
000003e0: 0fc7 f63c 7d8c 263d c9ab 2cbc 5dd9 cabd
000003f0: b9ce e73c 25b4 eb3c 21a0 49bd aee5 1a3d

recommender_net/embedding_3/embedding_lookup f4 [123, 1]
0.19349517 -0.087907776 -0.31065914 0.19755527 -0.43998343 -0.17679554 0.120980725 0.2443654
-0.231538 0.026082452 0.13412581 0.12293571 0.019812135 0.08636777 0.21558467 -0.010706365
0.015006186 0.044699427 0.009859094 -0.411247 -0.36141524 0.23519298 -0.17750053 -0.23340552
-0.065538995 -0.22636637 0.011838956 -0.13390507 0.09661327 0.5086761 0.07442507 -0.16049343
-0.12122849 0.025010398 0.2059023 -0.21215877 -0.18291856 0.28971806 -0.041889858 -0.21384588
0.048800763 -0.40343508 -0.027224217 -0.13325383 0.32397693 0.17893738 0.26176798 0.16095182
-0.11688854 -0.085736215 -0.2681081 -0.13033739 -0.24481587 -0.09393374 -0.39970204 0.077122726
0.20945638 0.30975908 -0.15473539 -0.04373169 0.18570344 -0.045497857 -0.3642199 0.12350887
0.031423803 0.1705721 -0.2736889 0.12849213 0.33432457 0.12726355 -0.40607822 0.19587518
-0.059072733 -0.13567722 0.5785153 -0.06787973 0.031389084 -0.031413473 -0.17837836 -0.15328813
-0.47180253 0.06234531 0.1884105 -0.14990652 0.28588092 -0.28545943 -0.12595002 -0.09843354
0.4396304 -0.016578207 -0.1584314 0.08718889 0.09527239 0.29443094 0.18764868 -0.42533487
-0.13184376 -0.19044717 0.14858593 -0.32693425 -0.26402408 -0.06652631 0.0903753 0.029124517
-0.09899536 -0.06454251 0.041450392 0.07237918 0.3478285 -0.2073338 0.29787043 -0.08392381
0.31612504 -0.0038932154 0.22033072 0.40717632 0.07160902 0.07361645 0.29271105 0.30518603
0.03582867 -0.11064001 0.3477609
00000000: 9923 463e fe08 b4bd b70e 9fbe ee4b 4a3e
00000010: 8245 e1be e409 35be bec4 f73d ec3a 7a3e
00000020: 4c18 6dbe deaa d53c 4758 093e b8c5 fb3d
00000030: 0f4d a23c 96e1 b03d 3ac2 5c3e c069 2fbc
00000040: 82dc 753c bf16 373d 0a88 213c f78e d2be
00000050: 6b0b b9be 6ed6 703e b3c2 35be db01 6fbe
00000060: 4f39 86bd 96cc 67be 2ef8 413c 691e 09be
00000070: 2edd c53d 9938 023f 2c6c 983d 6458 24be
00000080: a446 f8bd 9be2 cc3c 0dd8 523e 2640 59be
00000090: 014f 3bbe ed55 943e b394 2bbd 6afa 5abe
000000a0: 4fe3 473d 0b8f cebe 5205 dfbc b173 08be
000000b0: 4ee0 a53e 5c3b 373e 7406 863e 8ed0 243e
000000c0: 4263 efbd 7896 afbd 7745 89be 2a77 05be
000000d0: 03b1 7abe 5560 c0bd bfa5 ccbe 85f2 9d3d
000000e0: bc7b 563e be98 9e3e f472 1ebe 0020 33bd
000000f0: 0b29 3e3e f65b 3abd 087b babe 38f2 fc3d
00000100: 3fb6 003d 74aa 2e3e f420 8cbe 7193 033e
00000110: 972c ab3e 6051 023e 7ce9 cfbe 8193 483e
00000120: 40f6 71bd f8ee 0abe 9419 143f 8704 8bbd
00000130: d791 003d 6aab 00bd d1a8 36be 90f7 1cbe
00000140: 1a90 f1be cc5d 7f3d afee 403e 1881 19be
00000150: fc5e 923e bd27 92be 0bf9 00be 8697 c9bd
00000160: 3c17 e13e 05cf 87bc d73b 22be 1790 b23d
00000170: 2c1e c33d a7bf 963e fa26 403e 7ec5 d9be
00000180: 0d02 07be 9504 43be e926 183e ed63 a7be
00000190: 2a2e 87be f23e 88bd af16 b93d 8a96 ee3c
000001a0: 14be cabd dd2e 84bd e3c7 293d 893b 943d
000001b0: 9416 b23e 504f 54be 7982 983e 3fe0 abbd
000001c0: 24db a13e 5125 7fbb 609e 613e 6a79 d03e
000001d0: c0a7 923d 39c4 963d 39de 953e 5841 9c3e
000001e0: 15c1 123d 3b97 e2bd b70d b23e

recommender_net/embedding_2/embedding_lookup f4 [123, 50]
-0.09162265 -0.028418133 0.20573315 0.004737107 -0.030275557 0.07423527 0.13825102 -0.107437454
0.0141725885 0.08837678 -0.10750369 0.06760721 -0.22989231 -0.19191453 0.035794307 0.10590063
-0.231112 -0.13572793 -0.026125923 -0.055825725 0.006312974 0.049279463 -0.015055469 -0.073175535
0.0024030046 -0.032629635 -0.092588045 0.13668844 0.05409246 -0.1234125 0.037325714 -0.0066332677
0.19894424 0.11683764 0.11167866 -0.035541452 0.05170966 0.004303376 -0.041203808 0.041763682
0.0088618025 0.101223774 0.14705543 -0.024677971 -0.13182095 -0.053763077 -0.15971465 -0.14121017
-0.099142134 -0.066579305 0.16514078 0.031796474 -0.02400919 -0.08839348 -0.22917037 0.022643438
0.04394418 0.031820465 -0.069331475 0.17459752 -0.03557922 0.055763185 0.12464583 -0.036979605
-0.050255068 0.051892262 0.046362173 -0.14262122 -0.052005775 0.094750084 0.015410318 -0.048804615
-0.21779522 0.0026128567 0.030946322 -0.10202076 0.0934899 0.15547863 -0.100617155 0.0056547513
0.03553458 -0.15230262 0.16670331 -0.16521086 0.16023873 -0.12979315 -0.16193354 0.04476389
-0.11498605 -0.077614985 0.04714655 -0.00086423795 0.013616364 0.20253004 -0.13785172 -0.029268794
-0.0409991 -0.05662211 -0.20360665 0.07922443 -0.035331298 0.005832928 0.01677837 -0.16398714
-0.07057714 -0.047633287 0.11619528 0.07275028 -0.13141331 0.018796701 0.07851337 -0.029656425
-0.14451876 -0.01508075 0.106303714 0.20513277 -0.030817103 0.059751596 -0.009870414 0.15791953
-0.12983471 -0.12361088 0.07525325 -0.029501867 0.054622896 0.06775882 -0.03302936 -0.0016610305
-0.16333354 0.18012753 -0.117998056 -0.16344258 -0.06756393 -0.094724014 -0.27644038 -0.0009815114
-0.041584857 0.10899481 -0.0062436103 0.07397624 0.026199622 -0.02839057 -0.02605247 0.017804008
0.026998505 0.15340137 -0.06661737 0.16032115 -0.067209326 0.031290025 -0.10949586 -0.08623688
-0.12888056 0.07468931 -0.049572844 0.13182256 -0.030842058 0.11682396 -0.18310706 -0.024782
0.16432823 0.17866547 -0.030999556 -0.035181127 -0.06833365 -0.02110309 -0.05629111 0.089748636
0.087539285 0.110706605 -0.071369104 -0.044625867 -0.26338348 0.014664622 -0.11305649 0.18747497
0.18741937 -0.005800538 -0.038961444 0.097241625 0.07427594 0.049464043 -0.06490723 0.11721834
0.17756009 0.10416468 -0.25887308 -0.12991968 0.0675089 0.02041873 0.043123525 -0.08795117
-0.15701193 0.07246156 0.024699999 -0.018437218 0.083601624 -0.005378246 0.091435485 0.21267335
0.0197863 -0.22326049 -0.017454134 0.052237105 -0.24225824 -0.13778085 0.06904217 0.17491671
-0.14717017 0.012042467 0.06689777 -0.2368239 0.09462685 -0.0840117 0.13083142 -0.1674819
0.13214336 -0.0085060755 0.091244474 0.18834114 -0.18700942 0.087758586 0.0009762477 -0.17436315
0.04082589 0.058821578 -0.16704452 -0.13702244 0.1128448 0.10579371 0.23407404 0.03916411
-0.043947168 0.065803476 0.021752601 -0.12065846 -0.07110398 -0.04876103 0.061705995 -0.022611516
0.05189471 0.087873235 0.061726686 -0.16988768 -0.009609821 0.24241184 0.032720838 -0.22655034
0.0060683857 -0.12750816 -0.113193475 0.21169753 0.042055536 -0.108327724 -0.015225001 -0.12267826
00000000: a8a4 bbbd 25cd e8bc b6ab 523e bc39 9b3b
00000010: 7204 f8bc a908 983d ad91 0d3e 2b08 dcbd
00000020: 2534 683c e3fe b43d e52a dcbd a675 8a3d
00000030: e468 6bbe 3e85 44be 0d9d 123d 6ee2 d83d
00000040: a0a8 6cbe 43fc 0abe 0806 d6bc 84a9 64bd
00000050: 10dd ce3b 43d9 493d 37ab 76bc 0edd 95bd
00000060: ba7b 1d3b a7a6 05bd cd9e bdbd 0ef8 0b3e
00000070: 0e90 5d3d b1bf fcbd d9e2 183d e25b d9bb
00000080: 0ab8 4b3e 9348 ef3d c8b7 e43d ea93 11bd
00000090: 82cd 533d 5603 8d3b 53c5 28bd 6510 2b3d
000000a0: 1831 113c 694e cf3d b395 163e 7529 cabc
000000b0: 12fc 06be ac36 5cbd 3d8c 23be 6699 10be
000000c0: 080b cbbd bb5a 88bd aa1a 293e 053d 023d
000000d0: ecae c4bc a407 b5bd a3ab 6abe bb7e b93c
000000e0: d0fe 333d 2d56 023d a9fd 8dbd b1c9 323e
000000f0: 84bb 11bd f067 643d 5046 ff3d ed77 17bd
00000100: 42d8 4dbd fb8c 543d 43e6 3d3d 4c0b 12be
00000110: 0204 55bd 550c c23d 8f7b 7c3c 59e7 47bd
00000120: b605 5fbe 763c 2b3b 2483 fd3c 43f0 d0bd
00000130: a277 bf3d ca35 1f3e 5e10 cebd 7e4b b93b
00000140: b58c 113d 38f5 1bbe 46b4 2a3e 092d 29be
00000150: 9f15 243e 7fe8 04be e8d1 25be 575a 373d
00000160: ce7d ebbd 9bf4 9ebd be1c 413d 078e 62ba
00000170: 2c17 5f3c 0964 4f3e 0029 0dbe 1cc5 efbc
00000180: acee 27bd 96ec 67bd 437e 50be 6b40 a23d
00000190: 8db7 10bd 2522 bf3b cb72 893c 3fec 27be
000001a0: bf8a 90bd 1f1b 43bd caf7 ed3d 19fe 943d
000001b0: 3691 06be 8afb 993c 9ecb a03d 08f2 f2bc
000001c0: bafc 13be 4015 77bc c3b5 d93d 530e 523e
000001d0: 2674 fcbc 17be 743d 84b7 21bc a8b5 213e
000001e0: 64f3 04be b327 fdbd 601e 9a3d e6ad f1bc
000001f0: 42bc 5f3d 23c5 8a3d cb49 07bd efb6 d9ba
00000200: e840 27be 5a73 383e f7a8 f1bd 7e5d 27be
00000210: f55e 8abd aafe c1bd 9889 8dbe 0fa6 80ba
00000220: e254 2abd ac38 df3d 3397 ccbb db80 973d
00000230: 97a0 d63c 5793 e8bc fd6b d5bc b6d9 913c
00000240: f82b dd3c 4015 1d3e b06e 88bd 3a2b 243e
00000250: 0ba5 89bd f829 003d 5e3f e0bd f69c b0bd
00000260: 44f9 03be b5f6 983d e50c 4bbd 7efc 063e
00000270: 7ca8 fcbc 6641 ef3d 6b80 3bbe 9f03 cbbc
00000280: a945 283e 15f4 363e c8f2 fdbc 161a 10bd
00000290: 83f2 8bbd 63e0 acbc 8291 66bd 22ce b73d
000002a0: cc47 b33d 25ba e23d f729 92bd 9dc9 36bd
000002b0: 33da 86be e243 703c 298a e7bd 70f9 3f3e
000002c0: ddea 3f3e 7112 bebb 0996 1fbd 9e26 c73d
000002d0: fc1d 983d cf9a 4a3d 15ee 84bd 2b10 f03d
000002e0: 50d2 353e 4b54 d53d 038b 84be aa09 05be
000002f0: 1b42 8a3d 2e45 a73c 4ba2 303d be1f b4bd
00000300: bcc7 20be ba66 943d a757 ca3c a609 97bc
00000310: 5437 ab3d ff3b b0bb 8742 bb3d 0bc7 593e
00000320: e116 a23c 669e 64be f9fb 8ebc 93f6 553d
00000330: 8b12 78be 6c16 0dbe fb65 8d3d 5e1d 333e
00000340: c7b3 16be c44d 453c b301 893d f781 72be
00000350: b9cb c13d 530e acbd acf8 053e 6080 2bbe
00000360: 9750 073e 115d 0bbc 62de ba3d 80dc 403e
00000370: 667f 3fbe c6ba b33d e0ea 7f3a 418c 32be
00000380: 0c39 273d e5ee 703d b80d 2bbe 9c4f 0cbe
00000390: 2d1b e73d 5faa d83d 1bb1 6f3e 8c6a 203d
000003a0: f201 34bd f9c3 863d 8332 b23c c81b f7bd
000003b0: f79e 91bd a5b9 47bd 6dbf 7c3d c93b b9bc
000003c0: 8c8f 543d e2f6 b33d 1fd5 7c3d 09f7 2dbe
000003d0: 8372 1dbc cf3a 783e 4906 063d d0fc 67be
000003e0: 4fd9 c63b 8091 02be fbd1 e7bd 3dc7 583e
000003f0: 6d42 2c3d edda ddbd 4872 79bc bd3e fbbd

recommender_net/embedding_1/embedding_lookup f4 [300, 1]
0.1683631 0.44702926 -0.16790846 0.48662275 0.17404976 -0.1955297 -0.06991563 -0.10281914
0.017278034 -0.26408002 0.17745197 0.21451582 0.059857838 -0.085172415 -0.3082666 -0.013706775
0.12008461 -0.51269346 0.11101959 0.04713439 -0.118662976 0.53269976 -0.25067863 -0.41380304
-0.08809174 -0.023070924 -0.22286549 -0.4242257 -0.1516228 0.39726365 -0.075788826 0.1240549
-0.37786376 -0.20816033 -0.52207047 0.2437815 -0.15308218 0.119625136 0.02258862 0.12696332
-0.027556757 0.439452 0.16879302 0.29624838 0.082102895 0.069714084 -0.20279305 -0.09935337
-0.062208608 -0.08467343 -0.269473 0.30232653 -0.49079955 0.07791897 -0.17963716 0.120160505
0.07645748 -0.25875968 0.46025416 -0.111948796 0.13801375 0.1184027 -0.3752697 0.18584831
-0.6133989 0.045591034 -0.33410224 -0.25389585 -0.37298867 -0.06602522 0.008047183 -0.27175075
-0.09763219 -0.4558713 0.11386546 -0.36943987 -0.023859967 0.249509 0.05171668 -0.0735464
-0.564547 -0.26451677 0.155456 -0.2934536 0.09747658 0.042376038 0.2110995 -0.02450545
-0.08081468 0.07407655 -0.33295846 -0.07245695 0.053304847 -0.0908344 0.13254333 0.05506259
0.5804476 0.16558804 0.21468048 -0.22735624 0.18421565 -0.18826598 -0.05039174 0.2928957
-0.15916207 0.43857068 -0.1116211 -0.11490708 -0.016340699 -0.012357598 0.26475462 0.23259331
0.06828834 0.44012865 0.398894 0.4978616 0.189556 0.1045309 0.03111781 0.382541
0.31891876 -0.16076034 -0.16816182 -0.047340002 0.043676503 0.49277112 -0.19688028 -0.046011973
0.16739078 0.5647008 0.22339661 -0.24512449 -0.09060772 0.116670445 0.22409047 0.21420176
0.16428427 -0.2649391 0.45983037 0.06079582 -0.46914902 0.20110938 -0.36571187 0.1876206
-0.1794663 -0.5087857 -0.1969843 -0.15824969 0.40213114 -0.12086092 -0.18394212 -0.19968668
-0.11199499 0.07521984 -0.12290994 -0.18994017 -0.17018536 0.0509498 -0.4506749 0.044597957
-0.07042952 0.11551122 -0.2769951 -0.04089213 0.35017577 0.21148984 0.2733635 0.06729907
0.15563999 -0.12864716 -0.28044173 0.66803116 0.048566487 0.09020377 0.20300092 0.59079415
0.016035693 -0.22683051 -0.12596424 0.17767975 -0.2680912 -0.2870245 0.2436307 -0.40839866
0.27162895 -0.13843237 -0.27456155 -0.18587725 -0.025761753 0.4594618 -0.08220902 0.39439285
0.36400837 -0.28122896 0.207221 0.087553486 -0.27658296 0.3977737 0.6196353 -0.15067053
0.19304019 0.094839685 -0.12640503 0.13392301 -0.010415647 -0.36071673 -0.14769596 -0.504668
-0.2637622 0.08535434 -0.06313471 0.09746907 0.21268116 -0.40564135 -0.30521253 0.46968484
-0.051344715 -0.09481452 0.42077348 0.41264874 -0.21735379 -0.20468827 -0.17176332 0.24249561
-0.039024446 -0.0564934 -0.2583007 0.42650568 -0.14015138 -0.25138173 0.11849223 0.0333604
-0.16426928 -0.124804646 0.3206025 -0.30076304 -0.027142918 0.16050227 -0.020958478 -0.019861046
-0.070490524 -0.113104045 0.14542396 0.28991738 0.048774943 -0.22719096 0.048811372 0.060676925
0.3793922 -0.26648456 -0.18583696 0.5093865 0.25322118 0.285066 -0.12806769 -0.022496397
00000000: 6067 2c3e 05e1 e43e 32f0 2bbe 9e26 f93e
00000010: 1a3a 323e f038 48be ed2f 8fbd d792 d2bd
00000020: aa8a 8d3c 7f35 87be f8b5 353e 09aa 5b3e
00000030: 7e2d 753d e06e aebd 1fd5 9dbe 6292 60bc
00000040: ecee f53d e13f 03bf 3d5e e33d fd0f 413d
00000050: 9305 f3bd 035f 083f f358 80be fedd d3be
00000060: 7169 b4bd 3cff bcbc da36 64be 1c34 d9be
00000070: 0243 1bbe 2466 cb3e 2c37 9bbd 7f10 fe3d
00000080: 5c77 c1be fb27 55be 69a6 05bf dca1 793e
00000090: 93c1 1cbe 06fe f43d c50b b93c ac02 023e
000000a0: b5be e1bc daff e03e 14d8 2c3e dead 973e
000000b0: 9025 a83d 42c6 8e3d fba8 4fbe c879 cbbd
000000c0: 74ce 7ebd 4369 adbd 5df8 89be 8bca 9a3e
000000d0: 144a fbbe fb93 9f3d cef2 37be b616 f63d
000000e0: bd95 9c3d 267c 84be 6fa6 eb3e 6945 e5bd
000000f0: 7a53 0d3e 1d7d f23d 5a23 c0be 054f 3e3e
00000100: b607 1dbf aabd 3a3d 730f abbe a3fe 81be
00000110: 5ff8 bebe 3b38 87bd 55d8 033c ea22 8bbe
00000120: 63f3 c7bd f767 e9be 4b32 e93d 3927 bdbe
00000130: fa75 c3bc 4a7f 7f3e dfd4 533d 7f9f 96bd
00000140: 2786 10bf be6e 87be dc2f 1f3e 8d3f 96be
00000150: cda1 c73d 7f92 2d3d 782a 583e a7bf c8bc
00000160: 2b82 a5bd 72b5 973d 8879 aabe 4f64 94bd
00000170: 2f56 5a3d 6307 babd 70b9 073e 4f89 613d
00000180: 3798 143f e98f 293e 33d5 5b3e 13d0 68be
00000190: 07a3 3c3e ccc8 40be 9267 4ebd 6df6 953e
000001a0: 62fb 22be 568c e03e 9a99 e4bd 6754 ebbd
000001b0: eedc 85bc 8677 4abc eb8d 873e f12c 6e3e
000001c0: c2da 8b3d 8b58 e13e d63b cc3e b7e7 fe3e
000001d0: f81a 423e 4c14 d63d c7ea fe3c 6adc c33e
000001e0: 5249 a33e 5c9e 24be 9d32 2cbe 97e7 41bd
000001f0: 22e6 323d 7f4c fc3e fc9a 49be 0d77 3cbd
00000200: 7d68 2b3e 3b90 103f 15c2 643e ea01 7bbe
00000210: 8a90 b9bd eaf0 ee3d f977 653e b557 5b3e
00000220: 233a 283e 19a6 87be e36e eb3e 0a05 793d
00000230: 4d34 f0be 9eef 4d3e 963e bbbe 9d1f 403e
00000240: 04c6 37be c83f 02bf 41b6 49be 350c 22be
00000250: 22e4 cd3e ee85 f7bd 535b 3cbe aa7a 4cbe
00000260: a15d e5bd dc0c 9a3d 35b8 fbbd ad7f 42be
00000270: 1245 2ebe bdb0 503d dcbe e6be 59ac 363d
00000280: 5a3d 90bd 2691 ec3d 4dd2 8dbe 827e 27bd
00000290: 3d4a b33e cb90 583e 4df6 8b3e 18d4 893d
000002a0: 1760 1f3e 15bc 03be 0f96 8fbe 1704 2b3f
000002b0: a7ed 463d c1bc b83d 79df 4f3e 493e 173f
000002c0: 495d 833c 4246 68be c5fc 00be aef1 353e
000002d0: 4043 89be e0f4 92be 547a 793e a119 d1be
000002e0: f312 8b3e 37c1 0dbe 5593 8cbe 9b56 3ebe
000002f0: 500a d3bc 943e eb3e 345d a8bd dced c93e
00000300: 4e5f ba3e 3efd 8fbe be31 543e 3e4f b33d
00000310: 489c 8dbe ffa8 cb3e 6ba0 1e3f 6049 1abe
00000320: 54ac 453e 4f3b c23d 5270 01be 1d23 093e
00000330: 64a6 2abc ddaf b8be 9c3d 17be ec31 01bf
00000340: d70b 87be 42ce ae3d c54c 81bd dd9d c73d
00000350: 17c9 593e 39b0 cfbe d144 9cbe 887a f03e
00000360: d64e 52bd 1d2e c2bd 9f6f d73e b246 d33e
00000370: fe91 5ebe cd99 51be b9e2 2fbe c550 783e
00000380: 19d8 1fbd a065 67bd fd3f 84be f45e da3e
00000390: d883 0fbe 1bb5 80be 0eac f23d eaa4 083d
000003a0: 3536 28be 9499 ffbd 0326 a43e 9dfd 99be
000003b0: d35a debc b55a 243e 1db1 abbc a2b3 a2bc
000003c0: 565d 90bd 18a3 e7bd 05ea 143e 0d70 943e
000003d0: 3cc8 473d bfa4 68be 6fee 473d 5e88 783d
000003e0: b23f c23e aa70 88be 0b4c 3ebe 2767 023f
000003f0: 35a6 813e 2cf4 913e 2d24 03be 5d4a b8bc
